checkpointG.pth (torch_old, 460487 bytes, 8 tensors)

fc1.weight f4 [32, 100]
000000 a4 aa 1e 3e 91 2d a2 bb ab 95 12 bd be 47 82 3e
       0.15494782 -0.0049492796 -0.035787266 0.2544536
000010 ce f6 f9 3c 13 35 99 be f6 a9 64 3d 78 38 2d bd
       0.030513193 -0.29923305 0.05582615 -0.04229018
000020 39 b2 1c 3e da 02 3d 3d 1c b4 25 3e 4e c6 f7 bd
       0.15302362 0.046145298 0.16181988 -0.120983705
000030 43 6c 27 bd 44 4a a7 bd 22 69 20 3d 38 6c 70 3d
       -0.04087473 -0.08168462 0.039162762 0.058696955
000040 b4 38 22 bd 7b fd 85 3e d1 79 2d 3e ba f6 35 be
       -0.039604858 0.26169953 0.16941 -0.177699
000050 51 f3 12 3e 68 49 d3 be f6 c1 f3 39 ec ca 99 3b
       0.1435063 -0.41266942 0.00046493084 0.0046933796
000060 dc cc f9 3e 04 1b dc bd 09 31 99 bd 75 04 49 3e
       0.48789108 -0.1074734 -0.07480056 0.19630606
000070 2d ad 0b be 45 32 73 3e 6b 64 ba 3d 44 b5 2c bc
       -0.1364028 0.23749645 0.091011845 -0.010541264
000080 60 d3 24 3e 90 fe a4 3e 8a b9 83 bd 73 3c 3a 3c
       0.16096258 0.32225466 -0.06431873 0.011366951
000090 04 33 10 be f2 49 81 3c 7e 2c 51 3b b4 a0 80 3d
       -0.14081961 0.01578233 0.0031917389 0.06280652
0000a0 5b 62 38 3d 0a 54 7a be 0a bb 3e ba e6 5e aa be
       0.045015674 -0.24446121 -0.0007275796 -0.33275527
0000b0 ab 88 80 3e 92 61 d6 3d 2a 14 9e 3d bb 5f cc bc
       0.2510427 0.10467829 0.0771869 -0.024947992
0000c0 b9 9a 0f be 41 23 73 bd 1f 3f 54 be a7 5c 70 3d
       -0.14023866 -0.059359793 -0.20727204 0.05868211
0000d0 70 bd 07 be aa 4c d1 bd 48 00 b8 3c ba 9f f6 3d
       -0.13255858 -0.10219701 0.022461072 0.12042184
0000e0 ac 57 47 bd ff b2 19 be f4 bc c1 3d 89 af 63 3d
       -0.048667595 -0.15009688 0.09459868 0.055587325
0000f0 a0 0b 0f be 1b 9a 03 bb c6 63 fc bd 12 7f 8a bd
       -0.13969278 -0.0020080868 -0.12323718 -0.06762518
000100 c7 ba 60 3e d7 d2 30 be 85 25 79 be 94 b6 d3 3d
       0.2194625 -0.17267929 -0.24330719 0.103375584
000110 8f 3f 69 be 3c d8 91 bd 58 00 d2 3d 8d 10 e5 3c
       -0.22778152 -0.071213216 0.10253972 0.027961994
000120 c5 b2 46 3e 6b 3e 45 3d 8c f4 7b be 21 8a 31 3d
       0.19404133 0.04815523 -0.24605006 0.04334462
000130 1e 1f 84 3e 75 ca a1 3e 96 e7 56 3b 5d 72 0f 3e
       0.2580499 0.31599775 0.0032791845 0.1400847
000140 70 b4 ba bd 93 11 7d bd 71 d2 ad be e2 f4 65 3e
       -0.09116447 -0.06178434 -0.33949617 0.22456697
000150 d5 75 05 be 88 11 5f 3e 11 8f 5c 3e 3e 0b cc bd
       -0.1303323 0.21784031 0.2153895 -0.09963082
000160 02 e6 93 3e ec f9 1c be 0c cc 05 3d da e1 95 3d
       0.2888642 -0.15329713 0.032665297 0.073184684
000170 b9 77 de 3c c1 7f 0d be 6f 1a 9d bd 8c d8 1e be
       0.027156698 -0.13818265 -0.076710574 -0.15512294
000180 91 9e d0 be 70 99 01 3e 40 c7 2a be 02 86 32 be
       -0.40745977 0.12656188 -0.1667757 -0.17433932
000190 4e 32 4f 3e 19 ee ca 3e ca f2 3f 3e 08 16 61 3d
       0.20234033 0.3963478 0.1874496 0.05495265
0001a0 6c ca 37 3e 50 aa 5f 3b 56 f3 d7 3e 73 34 52 bd
       0.17948312 0.0034128614 0.42177838 -0.05131955
0001b0 2a 1d 51 3e 03 e7 7a 3c 08 c2 ef 3d db 6e 85 bd
       0.20421281 0.015313867 0.117069304 -0.06515285
0001c0 c8 31 3c bd 68 d3 83 be 14 8e 8a be 40 31 4d 3e
       -0.045945913 -0.25747228 -0.27061522 0.20038319
0001d0 0c 69 9a bd c6 27 6f 3e 50 a1 73 3b 87 24 bc 3d
       -0.07539567 0.23355016 0.0037175007 0.091866545
0001e0 ca f0 9a bd be da fc bd 5b 9d ca 3e 99 8d 22 b9
       -0.07565458 -0.12346409 0.39573178 -0.00015502273
0001f0 b5 46 84 bd 12 1a 04 3e 75 7b 4f bd a6 94 a9 bd
       -0.06458799 0.1290057 -0.050654847 -0.082803056
000200 f8 93 37 3e 43 64 c4 bd a2 78 01 3e 57 59 93 3e
       0.1792754 -0.09589436 0.12643674 0.28779098
000210 18 b4 b1 be 3c 7d b0 bd 02 65 90 bd 6d f3 cd bd
       -0.34707713 -0.086176366 -0.07050516 -0.100561954
000220 e7 75 c8 be f0 3c 4c 3d 44 00 2e be 1b 13 06 3d
       -0.39152452 0.049862802 -0.16992289 0.032733064
000230 13 29 6e bd b6 2e c3 bc e5 8b 0f bd 9c 57 cd bc
       -0.05814464 -0.023825984 -0.035045523 -0.02506619
000240 cf 08 ac 3d bc ce 42 3e b0 e1 af 3d 72 a2 07 be
       0.084001176 0.19024175 0.08587968 -0.13245562
000250 54 f6 8e 3c b1 3a 21 3e 10 56 37 be 1d f4 e5 bd
       0.017451443 0.15745045 -0.17903924 -0.112282015
000260 6f fa 39 3e 2f cf dc bd 3d df b8 3e e0 cd d2 bc
       0.18161939 -0.10781705 0.36107817 -0.025732934
000270 3b 17 99 3e 5a bc e3 3c 98 ea 20 3e 6c 6a 5a 3d
       0.29900536 0.027799774 0.1571449 0.053324148
000280 8d 67 17 bb d8 f3 d8 3d 96 1b 7e 3d c6 e9 3b be
       -0.0023102493 0.105933845 0.062038027 -0.18350896
000290 a7 62 20 be 0c 8e 30 3e ed 58 79 3e 8d 9e 25 be
       -0.15662633 0.17241687 0.24350329 -0.16173764
0002a0 1e 4e ca 3d 0b 90 40 3d f7 51 92 3e cb 1d 69 3e
       0.09878181 0.04701237 0.2857816 0.22765271
0002b0 87 1d c8 3c e8 6a 42 be 1a 3b b9 3d 19 33 be 3c
       0.024428142 -0.18986094 0.09044476 0.023217725
0002c0 c4 aa 30 be b4 bb b6 bd 75 e9 57 be d2 6c 40 3d
       -0.17252642 -0.0892252 -0.2108515 0.04697878
0002d0 48 c3 f6 bb db 7e 8c 3e 4b 66 b3 bd 0d 18 42 3e
       -0.0075306036 0.27440533 -0.08759745 0.18954487
0002e0 20 6d 1c 3e 9a 55 0a bd cf 25 d9 bd b9 53 93 be
       0.15276003 -0.033773042 -0.106029145 -0.28774813
0002f0 f4 ec ea 3d d4 7f b9 3c 54 62 c5 3d bb d7 a5 bc
       0.114709765 0.022643961 0.09637895 -0.02024447
000300 be a7 69 3e b7 e9 04 be b1 b3 03 be 3f 6a 65 bd
       0.22817895 -0.1297978 -0.12861516 -0.056009527
000310 a4 ec 04 bd 1a 7c d6 3c 4c db ab 3d 4d 6b 89 be
       -0.03245224 0.026182223 0.08391437 -0.26839676
000320 86 d0 ca 3e b3 93 07 3d 8d 86 88 3d 11 42 6f bd
       0.39612216 0.03309984 0.066662885 -0.058412615
000330 f2 76 94 3c d8 62 8e 3e 38 d5 7a 3e 3b 47 4b 3e
       0.018123124 0.27809787 0.24495399 0.19851391
000340 bb 0e 04 3e 19 1c 0b 3f c9 4f 0f 3e 4e 39 a4 bc
       0.12896244 0.5433975 0.1399528 -0.020046856
000350 f9 65 2b bc b0 bb 93 be e5 23 77 3e 87 6c 93 3d
       -0.010461324 -0.28854132 0.24134786 0.07198434
000360 33 69 72 3c 29 d2 f5 3d 10 fb 35 be e8 5f cf bd
       0.014795589 0.120029755 -0.17771554 -0.101257145
000370 1e 6e 62 3e 06 d4 78 3d e2 9c 72 3e 2d cb b1 be
       0.22112319 0.060749076 0.23692659 -0.34725323
000380 e0 1c 11 3e bb af 73 3e 3e c1 01 3f b6 e9 83 bd
       0.14171171 0.23797505 0.5068549 -0.06441061
000390 4a 84 f0 bd dc b6 ae 3e 18 f0 20 bf 14 78 2c be
       -0.11743982 0.34123886 -0.62866354 -0.16842681
0003a0 81 75 0d 3f 66 c4 e4 bd e3 cc bb bc 1b 0d b3 be
       0.5525742 -0.111702725 -0.022924846 -0.34970936
0003b0 a7 b7 5a 3d 8e 3a 1e 3d 97 20 78 bd c8 4c 05 3e
       0.0533978 0.03863006 -0.060577955 0.13017571
0003c0 18 f4 42 bd d0 78 31 3f f3 95 98 bd b5 26 85 3e
       -0.047596067 0.6932497 -0.074504755 0.26006094
0003d0 e6 34 27 3e 60 3d c7 3d 77 b8 c4 be c9 b6 05 be
       0.16328773 0.09728503 -0.38421986 -0.13058008
0003e0 2b ef e0 be 99 5d f6 be 2e c6 86 bd c9 6c 90 be
       -0.4393247 -0.48118284 -0.065807685 -0.28207996
0003f0 e4 8d fe 3c f6 ad 38 be 04 ca e2 bd 58 1d 91 bd
       0.031073518 -0.18035111 -0.11073688 -0.07085675

fc1.bias f4 [32]
000000 45 60 60 bf b1 a2 48 bf 34 06 5c bf 88 94 4c bf
       -0.87646896 -0.7837325 -0.85946965 -0.7991414
000010 25 05 6b bf ea 4e 4a bf 3e a3 4f bf e1 d0 51 bf
       -0.91804725 -0.79026663 -0.8110846 -0.8195935
000020 fc 3c 5f bf 53 b8 55 bf a2 b6 42 bf 4a 87 4d bf
       -0.8720243 -0.8348438 -0.76059926 -0.8028456
000030 a3 6d 47 bf fd 25 44 bf 63 5b 3b bf 4a a3 63 bf
       -0.7790167 -0.76620466 -0.7318632 -0.88921034
000040 ae 25 68 bf 68 95 6d bf a3 a3 43 bf 50 0b 5c bf
       -0.90682495 -0.928061 -0.76421565 -0.8595476
000050 b8 c7 40 bf 33 df 5c bf 45 ee 5e bf be 15 56 bf
       -0.75304747 -0.86278075 -0.8708232 -0.83626926
000060 f3 52 3d bf e0 37 48 bf fc 56 39 bf 3e 2f 46 bf
       -0.73954695 -0.7821026 -0.7239835 -0.77415836
000070 8e ac 33 bf 47 6b 4d bf c9 51 2d bf 20 6b 49 bf
       -0.7018517 -0.8024182 -0.6770292 -0.78679085

fc2.weight f4 [64, 32]
000000 f9 fd 37 3e 72 76 32 3e a5 e6 92 3a 61 c4 8d 3d
       0.17967977 0.17427996 0.0011207653 0.06922222
000010 2d bc 20 be fb be a3 3c d7 a6 5d be 3b fc a6 3d
       -0.15696783 0.019988528 -0.21645676 0.08153578
000020 28 1f 2c be 85 fc 29 ba 91 07 94 3c 93 92 b0 bd
       -0.1680876 -0.0006484467 0.018070014 -0.08621707
000030 d1 0c a0 bd cd bf f1 bc 9c cf cb 3d 05 4e 5a 3e
       -0.078149445 -0.029510403 0.09951708 0.21318825
000040 d3 00 1e bd 33 2e 43 bd 20 c3 0d bc 96 b0 90 3c
       -0.038575005 -0.04765148 -0.008652478 0.017662328
000050 fd aa 00 3e b9 77 d4 3d 87 6b af bd 29 b1 5e bd
       0.12565227 0.10374398 -0.08565431 -0.05436817
000060 18 86 1f 3e 72 0b d7 3d 7f cc 78 3d e7 e8 2c 3a
       0.15578496 0.1050023 0.060741898 0.00065959845
000070 ad bb 17 bd 0e bd 97 bd 06 0e 2f 3e 69 ac 05 3e
       -0.037044216 -0.07409106 0.17095193 0.1305405
000080 f9 30 5c bd f7 79 d7 bd 90 d7 45 be 3a 10 02 3e
       -0.05375764 -0.1052131 -0.19320512 0.12701502
000090 d6 dd e8 3d 62 14 26 bd 0d 78 1b 3d 20 c9 26 3d
       0.11370437 -0.040546782 0.037956286 0.04071915
0000a0 bd 99 d3 3d 15 0c 56 3d 1f e4 8d bd c3 2f 4a bd
       0.103320576 0.052257616 -0.06928276 -0.049361955
0000b0 cb 19 72 3c a4 b8 16 3c 5d a5 2b 3e 8f 53 d9 bd
       0.014776657 0.009199295 0.167623 -0.10611641
0000c0 6f 49 69 3d 46 80 ea bd b2 7a 35 bd 74 9c 64 bd
       0.056954797 -0.114502475 -0.044306464 -0.055813268
0000d0 12 87 0c 3d ae 3e c3 bd fe 6f fc bd 82 1d 56 3d
       0.0343085 -0.095334396 -0.12326048 0.052274235
0000e0 b9 ca c9 bc 1f 9e 6e 3d 84 20 93 3c ff bc 9b bd
       -0.024632799 0.058256265 0.01795984 -0.076044075
0000f0 d5 ac f9 3d 8d e8 bb 3d 0d b0 d7 bd 6d 80 aa 3d
       0.12191168 0.09175215 -0.10531626 0.083252765
000100 3c 03 81 3c 55 2e e6 3d 9c 54 10 3e 4e 05 d0 bd
       0.015748613 0.11239306 0.14094776 -0.10157262
000110 41 dc 67 3d 0b 98 9d bd e7 d9 13 3d 0a 8e 3f bd
       0.056606535 -0.076950155 0.03609648 -0.04676632
000120 33 19 66 bd fe 4b 40 3e 21 4a 04 3d 60 9d f1 bd
       -0.056176376 0.18778989 0.032297257 -0.11797595
000130 81 1e 5f 3e 65 9d 2c be 87 17 c3 3c 22 6e 3d be
       0.2178898 -0.16856916 0.02381493 -0.18499044
000140 76 be e9 bc 4a 2a 04 3d ca b0 c2 3c ed d1 7a bd
       -0.028533202 0.032266892 0.02376594 -0.061235357
000150 01 d5 e8 3c d6 aa 86 3d bf 54 0c be ff ba 8f 3e
       0.02842188 0.06575553 -0.13704203 0.28072354
000160 0c cb 98 3d f0 1e d7 bd 3f da 0d 3e 25 73 41 bc
       0.07460603 -0.10503948 0.13852786 -0.011807238
000170 41 4a 8b bc d8 7b 57 3d 4e 10 e1 3d 63 c5 26 3e
       -0.01700318 0.05260834 0.10989438 0.16286235
000180 93 23 f3 3b 20 80 41 be 03 5a 0e 3e 79 dc 12 bd
       0.0074200123 -0.18896532 0.13901524 -0.03585479
000190 82 82 3f 3d c3 f7 dc bd bb 4e 09 3e a4 13 e2 bc
       0.04675532 -0.10789444 0.1340894 -0.027597256
0001a0 59 d5 ce 3b d2 33 92 3c b9 90 51 bd b0 76 b6 bd
       0.006312054 0.017846975 -0.05116341 -0.089093566
0001b0 14 b0 44 3e 98 06 9d 3e 74 c5 38 be 1c 42 35 be
       0.19207793 0.30669093 -0.18044072 -0.17701
0001c0 25 88 30 bd 5c 02 30 be 15 b6 53 be d5 67 dc bd
       -0.043098588 -0.171884 -0.20674928 -0.10761992
0001d0 d7 c3 be 3c be 34 96 3c 42 8f 19 3d 8f c4 51 bd
       0.023286743 0.018335696 0.037490137 -0.051212844
0001e0 3f 00 7e bd 29 1b 74 3d 63 c0 0a be 86 7a 91 bc
       -0.062011953 0.059596214 -0.13549952 -0.017758619
0001f0 3d 71 05 3e ed 7e 01 3e c7 04 04 3d 8f 37 5e bd
       0.13031478 0.12646075 0.03223112 -0.054252204
000200 d0 b5 dc 3d 1e a6 11 bd ce 4e c3 39 83 13 a6 bc
       0.107768655 -0.035558812 0.00037252012 -0.020272976
000210 77 23 7c 3d fe 81 e0 3d 18 03 91 3b c9 e5 87 3d
       0.06155726 0.10962294 0.0044254176 0.06635625
000220 9d 2f 6e 3d 59 ca ca bb 18 62 37 be e6 79 f9 bc
       0.058150876 -0.0061886725 -0.17908514 -0.030453634
000230 d9 e8 c5 bc 47 ed 50 bd a5 6f 39 3e 7a 34 b5 bd
       -0.024158882 -0.051007535 0.18108995 -0.088479
000240 2f a4 a1 bd aa 8c 3c 3d cf 1c cb 3c 1e 36 39 3d
       -0.07892644 0.046032585 0.02479401 0.045217626
000250 a4 76 93 bb f9 30 5f bc c8 4c 39 bb 24 87 b5 bc
       -0.004500227 -0.013622516 -0.0028274525 -0.022159167
000260 54 2b e2 3c 2e 68 69 3d 31 d8 11 3d 18 a2 d8 bb
       0.027608551 0.05698412 0.035606567 -0.00661112
000270 6a 4c 60 bd 91 fe f6 bc 0b dd 19 bd 72 b4 2a 3b
       -0.054760374 -0.030150684 -0.03756432 0.0026047495
000280 6e 60 a1 3b fa 20 43 b9 53 45 42 bd d7 63 a1 bd
       0.0049248254 -0.00018608934 -0.047429394 -0.07880371
000290 bf cb 08 be e9 1f 01 3e 7c dc e2 bd 37 41 8d 3d
       -0.13358973 0.12609829 -0.1107721 0.06897204
0002a0 5b 9b 95 bc be 1d b1 3d fe aa 42 bc 08 24 22 be
       -0.018262556 0.08648251 -0.011881588 -0.15834057
0002b0 94 ba 48 bd 97 39 56 3d 77 38 77 3d 17 57 54 bd
       -0.04900606 0.052301016 0.060356583 -0.051840868
0002c0 de da 4d 3c 9d 21 90 3d ba 02 33 bd 64 11 8e 3d
       0.012564389 0.07037661 -0.043703772 0.06936911
0002d0 70 a0 10 be e3 5d 6a bc d8 db 37 bd f0 30 84 3e
       -0.14123702 -0.014304611 -0.044887394 0.25818586
0002e0 fb 43 89 bc 2a 67 91 bd ba 49 29 3c 72 ff 0f 3d
       -0.016756048 -0.07099755 0.010332519 0.03515572
0002f0 c1 bc f1 bd d3 7a 5e 3c 74 60 9e bd ec d6 0c be
       -0.1180358 0.013579088 -0.07733241 -0.13753861
000300 8a a2 59 bd 68 26 ab bd de 2c 62 be a8 7d d4 3d
       -0.053133525 -0.08356935 -0.22087428 0.103755295
000310 6e 8e 51 be 56 77 6e be 82 cc 9d bd 4f 3a f8 bc
       -0.20464489 -0.2328771 -0.077050224 -0.030301241
000320 f2 dd 18 3e 3e 45 bf 3c e8 74 4e be 95 78 25 be
       0.14928415 0.023348447 -0.20161784 -0.1615928
000330 75 f9 30 be 5b df 43 be 05 8a 08 be 98 2a d8 bd
       -0.1728266 -0.19128172 -0.133339 -0.10554999
000340 f1 91 a2 bd 5f 22 eb bd d6 0f 06 be d8 a3 78 be
       -0.07937992 -0.11481165 -0.13091978 -0.24281251
000350 ae 8f c0 bd 7c 8d 0d be 5c 82 0a be 41 a0 c4 bd
       -0.09402405 -0.13823503 -0.1352629 -0.096008785
000360 35 c9 7e be 10 a1 ac bd 36 5a c0 b9 13 80 35 be
       -0.24881442 -0.08429158 -0.00036688306 -0.17724638
000370 35 20 42 3e 43 f0 ea bc df 9d a7 be 98 e4 63 3e
       0.18957599 -0.028679019 -0.32737634 0.2225517
000380 ac b7 c5 bd 63 94 63 be d7 c1 34 bd fc c8 15 3e
       -0.09654173 -0.22224574 -0.044130173 0.1462745
000390 8e e2 8a bd eb 3c 08 3e 0f 2e 83 3e e0 7e 13 3e
       -0.06781493 0.13304488 0.25621077 0.14403868
0003a0 53 81 1c 3e ce 18 10 be 31 88 0e bd b4 88 0c bc
       0.15283708 -0.14071962 -0.03479785 -0.008577514
0003b0 25 bc 0c be 91 f9 5e be c0 fe 16 3e ad b4 99 39
       -0.13743646 -0.2177489 0.14745617 0.00029317048
0003c0 40 10 ab bd 7e af 39 be d8 62 86 bd 42 30 ca bd
       -0.08352709 -0.18133351 -0.06561822 -0.09872486
0003d0 93 65 41 3d b3 a7 b2 bd 3b d2 e5 3c e7 8f 30 3e
       0.04721601 -0.08723392 0.028054347 0.17242394
0003e0 76 2c 7c bc 12 42 e7 bd 37 44 9b bc 13 df a1 3c
       -0.01539146 -0.11291899 -0.018953426 0.01975969
0003f0 cb 3c 4b bd fe 28 7d 3d ec 44 de bd ba 30 0e 3d
       -0.049618524 0.06180667 -0.108529896 0.034714438

fc2.bias f4 [64]
000000 d4 9f a4 be e5 76 5a be ed f0 43 be 68 17 8f be
       -0.3215319 -0.21334417 -0.19134875 -0.27947545
000010 02 d2 51 be 1c 65 54 be 43 65 8b be 74 0a 9c be
       -0.20490268 -0.20741695 -0.27225694 -0.30476725
000020 68 c1 23 be 40 34 4a be 1f 7f 99 be 83 87 82 be
       -0.15991747 -0.19746494 -0.29979798 -0.25494012
000030 47 a0 77 be de 52 8f be d1 d1 a2 be d6 73 7d be
       -0.24182235 -0.2799291 -0.31800702 -0.24751219
000040 5b ff 82 be 2e 34 80 be 06 79 cf be b3 f0 14 be
       -0.25585446 -0.2503981 -0.4052202 -0.14544944
000050 8a 76 4e be 95 c7 63 be 77 64 73 be 28 0a 93 be
       -0.20162407 -0.22244103 -0.23768793 -0.28718686
000060 c6 b0 46 be b2 91 34 be 9e 0a 9a be 66 c6 69 be
       -0.19403371 -0.17633703 -0.30086225 -0.22829589
000070 67 b8 a7 be 76 b6 78 be d1 cb ff bd 80 cc 3f be
       -0.32757875 -0.24288353 -0.12490047 -0.18730354
000080 7e 41 7a be 73 26 26 be c9 78 87 be b9 7d a6 be
       -0.24439046 -0.16225605 -0.2645934 -0.32517794
000090 f4 bb a3 be 72 1d 23 be ee c4 6b be 94 46 a8 be
       -0.31979334 -0.15929201 -0.23024341 -0.32866347
0000a0 ce b6 4a be ea 91 4b be 67 e8 5d be fc 87 80 be
       -0.19796297 -0.1987988 -0.21670686 -0.25103748
0000b0 ff cd 8a be 32 8a cf be 07 58 8f be ee 1c 83 be
       -0.27110288 -0.40535122 -0.27996847 -0.2560801
0000c0 c7 c8 5f be a1 ca 60 be 3d f0 4f be 39 67 6c be
       -0.21853934 -0.21952297 -0.20306487 -0.23086251
0000d0 8a d2 57 be 1f 45 c1 be 75 8a 86 be 2b 2e 13 be
       -0.21076408 -0.37748048 -0.2627751 -0.1437308
0000e0 60 54 a7 be 3c e6 79 be 29 f9 8b be 5d c5 54 be
       -0.3268156 -0.24404234 -0.27338532 -0.20778413
0000f0 f5 18 3e be c4 ae 88 be 8f de 9f be 2a 8f 7c be
       -0.18564208 -0.26695836 -0.31224486 -0.24663988

fc3.weight f4 [128, 64]
000000 86 74 d1 3d 9e 41 fe bb f1 7f 8f 3e f2 dd d5 3c
       0.10227303 -0.007759287 0.280273 0.026106808
000010 14 0c 87 be 23 52 b4 3e 10 c6 b3 3d b5 42 53 3d
       -0.26376402 0.35218915 0.08778012 0.05157729
000020 e0 25 2e be 14 d9 86 bd 40 38 a2 3e db 19 cd 3d
       -0.17006636 -0.06584373 0.3168354 0.10014697
000030 a1 82 c1 bd 7d 3c ad 3d ed d7 ab bc f5 9e 8f 3a
       -0.094487436 0.08458803 -0.020976985 0.0010957407
000040 a1 29 37 be 85 48 00 3e 04 4f cb 3d 07 32 90 3d
       -0.17886974 0.12527664 0.099271804 0.07040792
000050 6b dc 98 3d 36 9d a7 be 76 59 fb 3d 41 e5 02 be
       0.074639164 -0.3273713 0.12272923 -0.12782766
000060 51 9e 0e 3e 99 98 1c 3e e1 4a 87 3e 64 f3 5f 3e
       0.1392758 0.15292586 0.26424316 0.2187019
000070 70 34 39 3c bd 00 23 3e 77 86 8f be c7 5c a9 bd
       0.011304006 0.1591825 -0.28032276 -0.08269649
000080 b9 9f 00 bd 29 99 9e 3d 45 f8 38 be be ba a0 bd
       -0.031402323 0.07744057 -0.18063457 -0.07848118
000090 5d 96 87 bd 84 97 2c 3e aa 61 9c be 2e d5 ab 3d
       -0.066204764 0.16854674 -0.30543262 0.0839027
0000a0 10 8f 00 3d 52 e3 0f be 58 da dc 3d 75 a9 7a 3e
       0.031386435 -0.1405156 0.10783833 0.24478705
0000b0 a1 51 17 be cd 1f bd bd 1e 9f 70 3d e9 cb 81 bd
       -0.14777233 -0.09234581 0.058745496 -0.06337721
0000c0 66 07 32 3e 03 b9 03 bd 17 7b 20 3e d5 64 d3 bd
       0.17385635 -0.032158863 0.15671955 -0.103219666
0000d0 1b 30 57 bd 69 34 35 3c 4c fb 46 3e bf fb b9 3d
       -0.05253611 0.011059859 0.194318 0.0908122
0000e0 4f a2 9a 3d 54 57 1b 3e e3 27 7b bc a5 a3 c5 bc
       0.07550489 0.15170032 -0.015329334 -0.024125883
0000f0 9e fc 53 3d 6c 0b 20 3e ca 2e 43 bd 3e 85 62 3c
       0.051754586 0.15629357 -0.047652043 0.013825713
000100 3b 6d ea bd 29 17 6a bd 13 25 3a bd 14 8c 69 be
       -0.11446615 -0.057150993 -0.045445513 -0.22807342
000110 9a 6a 21 bc d9 f8 94 3d 8a 2d 67 3e 4b ea e6 bd
       -0.009852076 0.072740264 0.22575966 -0.112751566
000120 7c 16 d9 bd e9 f5 45 3e b9 b3 a5 3e fa f7 0b be
       -0.10599992 0.19332089 0.3236368 -0.13668814
000130 d0 82 29 be 00 48 eb bd 47 f8 93 3e 5f 31 ce bd
       -0.16553807 -0.11488342 0.28900358 -0.100680105
000140 bc 9e 24 bd 4f 19 5e 3e b4 80 ff 3e 67 8d c8 bc
       -0.040190443 0.21689342 0.4990288 -0.024481488
000150 a5 58 2f 3d 85 28 08 be 7b 61 46 be 74 17 f6 bd
       0.042809147 -0.13296707 -0.19373123 -0.12016192
000160 e0 59 0b be a3 64 dc 3d 89 1e 11 3d 66 c8 70 be
       -0.13608503 0.107613824 0.03542951 -0.23513946
000170 4b 0f 2c 3e c3 4e ab be a5 56 dc 3a fa c5 75 bc
       0.16802709 -0.33458528 0.001681049 -0.015000815
000180 81 b0 f7 bd b6 ab 6c 3d b1 c8 a2 bd cd 06 98 bd
       -0.12094212 0.057780944 -0.07948435 -0.07423172
000190 51 ce 47 3e be c5 66 be 44 d6 5e 3e 03 92 ed 3d
       0.19512297 -0.2253637 0.21761423 0.11600115
0001a0 d7 5e 0a be 96 bb 18 3e cb f2 25 3e 1f 97 93 bd
       -0.13512741 0.14915308 0.162059 -0.072065584
0001b0 3c 5e 07 3e bf 3b ee be b3 4b 40 3e ff 6d a4 be
       0.13219541 -0.46529958 0.18778877 -0.3211517
0001c0 a3 40 35 be 97 a1 08 be 9a 0c a2 3d 2d cb 14 3b
       -0.17700438 -0.13342892 0.0791256 0.002270411
0001d0 ea 95 76 3e 8b 1e 50 3b 75 db 5e 3c 5a 0f 42 be
       0.24080625 0.0031756486 0.013602127 -0.18951169
0001e0 67 39 8e 3e ca 61 1f 3d 02 4e 20 be df f4 87 3d
       0.2777817 0.03891162 -0.15654758 0.06638502
0001f0 2e fe 4f be 3f ec f2 bd 51 3b 2a 3e c0 5a f4 be
       -0.20311806 -0.118614666 0.1662419 -0.47725487
000200 b3 6d 43 be 6b ac 2f 3e 41 6a 09 be c4 2f 89 3d
       -0.19084816 0.17155616 -0.13419439 0.06698564
000210 c6 d3 87 3b c2 ad 4a be 7e 72 66 be 81 4b a1 bd
       0.0041451184 -0.19792846 -0.22504613 -0.07875729
000220 30 6d a1 3d 01 d1 80 be fc 25 e4 bd 49 d7 a2 3d
       0.07882154 -0.25159457 -0.111400574 0.07951219
000230 57 8b 71 bd 1f d5 28 bd ba 0e 6f be 1c 5f 2c be
       -0.058970775 -0.041218873 -0.23345461 -0.16833156
000240 7a 25 15 be 93 bd 86 bd 09 67 66 bd 8d d1 e8 bc
       -0.14565077 -0.06579127 -0.056250606 -0.028420234
000250 9d 1c 6e 3e 87 4f c0 be b2 d9 9f 3c c9 52 4b be
       0.23253103 -0.37560675 0.019512985 -0.19855799
000260 b6 bc bc be a7 a7 81 be 85 dc 4f bd 83 f6 88 bd
       -0.36862725 -0.2532322 -0.050747413 -0.066876434
000270 d5 c6 81 be 4a ff db bd 86 b3 34 bd c5 13 84 3e
       -0.2534701 -0.10742052 -0.04411652 0.25796333
000280 4f 07 d6 3c 5c 69 5a be 45 8a 4e 3d e1 44 dc bd
       0.026126532 -0.21329254 0.050424833 -0.10755325
000290 e0 20 f9 bd 16 42 82 bd ce 1a 35 be 4c 38 8c bd
       -0.121644735 -0.06360261 -0.17686006 -0.06846675
0002a0 f8 1f 28 be e2 fb 1a bc 8b 44 fd 3d 57 1e a6 3f
       -0.16418445 -0.009459468 0.12366589 1.2978009
0002b0 7f b2 af bd 5a e1 71 bd 5c 06 9f 3d c2 0d b9 bd
       -0.08578967 -0.059052803 0.07764885 -0.09035827
0002c0 69 ba ae 3d 1a d8 1a be d3 28 50 bd 0b 08 21 bd
       0.08531649 -0.15121499 -0.050820183 -0.03931431
0002d0 a8 b4 ab 3e 2e 93 46 bc 9c 8b 76 be e8 c2 a4 bd
       0.33536267 -0.012120051 -0.24076694 -0.08044988
0002e0 f2 bf f6 bd 50 44 64 be 97 cd 12 be e0 52 aa 3d
       -0.120483294 -0.22291684 -0.14336239 0.083165884
0002f0 14 2a 08 3e 3a 30 e6 bb 0d 37 65 bd 5c 88 e1 bd
       0.13297302 -0.007024792 -0.055960704 -0.110123366
000300 3a 6a 86 bd 3a 11 23 be c1 9a b5 be e7 71 cd bd
       -0.0656323 -0.1592454 -0.3546963 -0.10031491
000310 8d 68 25 bd 22 1b 08 3c 7f d5 8b be 0f a1 c7 bd
       -0.04038291 0.00830725 -0.27311322 -0.09747516
000320 39 c0 0c bd 29 1a 8d 39 9f a8 4a 3b c8 29 e3 be
       -0.034363005 0.00026913107 0.003092326 -0.44367814
000330 0a 43 da bd 44 c4 67 bc 38 09 af bd e3 97 04 3e
       -0.10657318 -0.014145914 -0.0854668 0.12948565
000340 0f 57 5d 3c 38 40 69 3e a1 3a 23 3e a4 92 99 bc
       0.013509526 0.22778404 0.15940334 -0.018746682
000350 5a de 51 3e 03 2a 2c 3e 26 85 34 bd 34 13 41 be
       0.20494977 0.16812901 -0.044072293 -0.18854982
000360 84 00 3b 3e e3 9d f0 bd f9 e5 19 be bd 4b 34 3e
       0.18261915 -0.117488645 -0.15029134 0.17607017
000370 29 df 08 be 98 5c 1c 3e 6e 5a 43 bd 36 67 1a 3e
       -0.13366379 0.15269697 -0.047693662 0.15078434
000380 d4 26 cc 3d ad 10 73 3e 52 9a 9f 3d 62 63 18 be
       0.099683434 0.2373683 0.07793106 -0.14881662
000390 70 78 b4 3d 74 87 89 be f8 a1 9d 3e 42 0e b2 bd
       0.08812034 -0.26861155 0.30787635 -0.08694126
0003a0 50 53 35 be 72 77 2f be 67 30 45 bd 38 4e 18 bd
       -0.17707562 -0.17135409 -0.048141863 -0.03718397
0003b0 e5 48 cb bd 61 b7 82 3c 5f c7 89 bc 5e 16 73 3d
       -0.09926013 0.015956583 -0.0168187 0.059347503
0003c0 cb 9e ee 3e 1f b2 ac bc 12 fc ab 3d 86 dc 3f be
       0.46605524 -0.021081029 0.08397688 -0.18736467
0003d0 b3 7e d4 3d 30 b5 6d bc 20 8f 0f be e5 d2 84 bd
       0.103757285 -0.0145085305 -0.14019442 -0.064855374
0003e0 42 7f d1 3d b2 14 49 3e 5d 5f 20 bd 25 ef 02 be
       0.102293506 0.19636801 -0.039153446 -0.12786539
0003f0 81 9f 95 3d 76 05 0d 3e 73 83 f9 bd e9 66 dc bd
       0.073058136 0.13771614 -0.12183275 -0.10761816

fc3.bias f4 [128]
000000 bb 19 8e bd 42 93 6f be 6d c0 95 be 18 61 6d be
       -0.069385014 -0.23396018 -0.29248372 -0.2318157
000010 11 f6 4e be 40 1a 46 be 31 5c 89 be e6 25 29 be
       -0.20211054 -0.19345951 -0.2682815 -0.16518363
000020 36 a7 0e be 36 51 82 be a9 ca e8 bd 5c 56 8a be
       -0.13930973 -0.25452584 -0.11366779 -0.27019012
000030 1f 02 a2 be f4 11 21 be 2f e2 92 be ed 98 47 be
       -0.31642243 -0.15729505 -0.2868819 -0.1949193
000040 54 7d 55 be 54 53 1e be b4 96 30 be a7 21 3a be
       -0.2084859 -0.15461475 -0.17244989 -0.181769
000050 fe 33 2f be 0b 32 76 be 54 92 29 be f1 ee 00 be
       -0.17109677 -0.24042527 -0.16559726 -0.12591149
000060 cb 46 8c be a4 1b 1f be bf 33 64 be 5a 4b 44 be
       -0.2739776 -0.15537888 -0.22285365 -0.1916937
000070 58 53 d1 bd e9 fc 90 be c1 25 51 be 7a ab 10 be
       -0.10220975 -0.28317955 -0.20424558 -0.14127913
000080 0a 41 7a be f3 05 fa bd c8 e6 1e be 7d cc 24 be
       -0.24438873 -0.12208166 -0.15517724 -0.16093631
000090 0c 5c e1 bd cc a8 ac be 4e 95 5f be 46 5c 41 be
       -0.11003885 -0.33722532 -0.21834299 -0.18882856
0000a0 33 ca 2f be c7 86 aa be be 6b 67 be c7 46 91 be
       -0.17166977 -0.33305952 -0.22599694 -0.2837431
0000b0 2d 93 60 be 2f df 54 be 19 7d a5 bd 24 54 8a be
       -0.21931143 -0.20788263 -0.08080501 -0.2701732
0000c0 f5 da 6f be b2 70 0b be 77 d9 5d be 31 dc 33 be
       -0.23423369 -0.13617209 -0.21664988 -0.17564465
0000d0 51 ca 99 be 96 a0 32 be 3b e9 58 be fc 37 71 be
       -0.30037168 -0.17444071 -0.2118272 -0.23556513
0000e0 f3 c0 b7 bd 35 4a 81 be 4b 94 88 be 64 ea 83 be
       -0.08972349 -0.25251928 -0.2667564 -0.25764763
0000f0 89 d6 b9 be 93 c7 10 be 10 9d 60 be 9b 1a 43 be
       -0.3629649 -0.14138632 -0.21934915 -0.19053118
000100 b3 5a 97 be b8 93 64 be 76 24 9b be b6 e6 3d be
       -0.29561386 -0.22321975 -0.30301255 -0.1854504
000110 c4 f7 ac be ef bd 18 be 37 d4 1f be f3 49 75 be
       -0.3378278 -0.14916204 -0.15608297 -0.2395399
000120 74 c9 74 be 6f 68 6e be 0e d9 c9 be 9c 08 58 be
       -0.23904973 -0.23282026 -0.39423412 -0.21097034
000130 0d 3c 3c be d4 7a 4e be 08 f2 be be 5c 97 23 be
       -0.18382283 -0.20164043 -0.3729403 -0.15975708
000140 9b 00 55 be 8f 70 90 be 48 4a 5c be 3a 3d 91 be
       -0.20801012 -0.28210875 -0.21512711 -0.28367025
000150 04 2f 28 be 12 dd 9b be e9 ea a3 be 94 43 2a be
       -0.16424185 -0.304421 -0.3201516 -0.16627342
000160 e4 1d 15 be dc f8 6b be 2e 74 7c be 34 20 f4 bd
       -0.14562184 -0.23044151 -0.24653694 -0.11920205
000170 79 97 7b be 48 27 20 be b1 84 02 be 6c 45 9d be
       -0.24569501 -0.15639985 -0.1274593 -0.30717027
000180 cf b0 0b be 13 56 77 be fb 0c 79 be cd a8 3e be
       -0.13641666 -0.24153928 -0.24321358 -0.1861908
000190 af 1f 2f be 35 ca ad be 49 d1 68 be 1c 27 96 be
       -0.1710193 -0.33943334 -0.22736086 -0.29326713
0001a0 ff b0 34 be a4 08 25 be dd e1 5a bd 0c 5a 99 be
       -0.17645644 -0.16116577 -0.053438056 -0.29951513
0001b0 00 8a b9 be 42 70 da bd fc 33 86 be 8f 2c 62 be
       -0.36238098 -0.10665943 -0.26211536 -0.2208731
0001c0 7f f3 6c be fb 7b 5b be e3 62 95 be 52 ae 7d be
       -0.23139761 -0.21434014 -0.29177007 -0.24773529
0001d0 5c fa 8e be 5c 5a c5 bd b7 ee 8a be 8c b2 07 be
       -0.27925384 -0.09636375 -0.2713525 -0.13251704
0001e0 b6 66 b4 be 1d 4a 2d be cc b2 8e be a7 a8 61 be
       -0.35234612 -0.16922803 -0.27870786 -0.22036992
0001f0 3a 24 88 be 5e 5b 25 be 26 3d 9c be 7c 3a 4d be
       -0.2659014 -0.16148135 -0.30515403 -0.20041841

fc4.weight f4 [784, 128]
000000 f1 85 1c bf 1b 5d 54 3f 40 e8 3c bf 54 3c 08 be
       -0.6114188 0.8295457 -0.73791885 -0.13304263
000010 c5 25 74 3e c2 be 0c 3f c6 e9 9a bd 67 d4 4e bf
       0.23842533 0.54978573 -0.0756412 -0.8079285
000020 78 58 4a 3f 2e e8 04 be 03 96 05 3f ad e3 08 be
       0.7904124 -0.12979195 0.52182025 -0.13368101
000030 0d 3e 84 be cb c2 fe bf 5d 60 53 bf f8 41 19 3e
       -0.2582859 -1.9903196 -0.82568914 0.14966571
000040 7b 58 02 3f 0c 89 95 bf da 6f 2e 3f c3 4c 1c be
       0.5091626 -1.1682448 0.6813942 -0.15263657
000050 39 d2 d5 3e 33 20 57 bf 7a 3c 9f 3d 99 86 36 3c
       0.4176195 -0.8403351 0.07775207 0.011140489
000060 43 df 16 bf 50 a8 4f bf 13 ef af bf 6a 7f 62 bf
       -0.5893442 -0.811162 -1.3744835 -0.8847567
000070 96 65 a5 be b6 9b ab be 9c 03 49 be 88 0c 50 bf
       -0.32304066 -0.33517236 -0.19630283 -0.8126912
000080 38 fc 95 3e 43 b0 fd 3e 8b da 8c bd ab bb 6f be
       0.2929399 0.4954854 -0.06877621 -0.23411433
000090 a8 92 46 bf d8 3a 22 3f 8e 14 01 be 95 f0 0a bf
       -0.7756753 0.6337104 -0.12605497 -0.5427335
0000a0 b0 bf 2a be 34 f3 d7 bd 6f 69 3c 3f ad 86 c1 be
       -0.16674685 -0.10544434 0.7359838 -0.37798062
0000b0 bc c7 e8 3e db 0c 35 bf 28 e0 b0 be f4 e0 01 3f
       0.45464885 -0.7072274 -0.34546018 0.50733876
0000c0 db ad 1b be 29 f8 88 bf b0 78 95 3c 2c e7 3a bf
       -0.1520304 -1.0700732 0.018246025 -0.7300899
0000d0 dc 99 e9 3e c7 c3 26 bf 8c 53 2b 3e e0 58 77 3e
       0.45625198 -0.6514248 0.1673109 0.24154997
0000e0 f9 17 90 3d b3 a0 95 3d e1 64 64 3c 4b 57 c9 3e
       0.070358224 0.073060416 0.013940067 0.39324412
0000f0 41 67 1e 3f 43 f0 eb be 6e 07 2f 3f b7 9b 71 bf
       0.618763 -0.46081743 0.6837071 -0.94378227
000100 75 05 02 be 2e cf 29 3f 63 ce cb bf 04 f5 fa be
       -0.12697394 0.66331756 -1.5922359 -0.49015057
000110 25 20 19 40 0e 06 ff 3e e1 e0 7c bf 23 9a 43 be
       2.392587 0.49809307 -0.9878064 -0.19101767
000120 8c 78 2c bf ad 1e 1c 3f d7 02 37 bd 81 21 b2 bd
       -0.6737144 0.6098431 -0.044680443 -0.086977966
000130 9a 1f 8b bf 34 97 2d be 61 d0 19 bf e0 b8 94 3e
       -1.0869019 -0.1695221 -0.60083586 0.29047298
000140 72 fd 3d bf c5 d4 f0 be f2 05 84 be 4a b3 1e be
       -0.7421485 -0.4703733 -0.25785786 -0.15498081
000150 b4 87 43 bf 97 1b 39 bf 48 7a dd 3e 8b 59 8a be
       -0.7637894 -0.72307724 0.43257356 -0.2702144
000160 48 ca 1c bf a0 1a 8a be eb 5c ff be c8 ff 7b be
       -0.61246157 -0.26973438 -0.49875578 -0.24609292
000170 79 9d ca bb fa c0 b3 be 27 30 39 bf 17 f5 fb b9
       -0.006183323 -0.35108167 -0.723391 -0.00048057057
000180 b8 c6 6d bf c2 b3 00 3d 30 7b 43 3e cf 7b 61 3e
       -0.92881346 0.03142143 0.19089961 0.22019885
000190 a7 76 eb 3e 4a 24 02 3f 11 78 b2 3f 82 d3 ba be
       0.45988962 0.5083662 1.3942891 -0.36489493
0001a0 a2 8e e6 be 46 57 15 bf a5 eb 80 bf ab 26 ab be
       -0.45030695 -0.58336294 -1.0071913 -0.3342794
0001b0 66 92 4b bf 2e 6a 9e bf d9 d3 03 3e e1 ec b0 3e
       -0.7952026 -1.2376153 0.12873782 0.34555724
0001c0 c0 b4 ae be 8e fd 6a be f8 f3 37 bf d6 fb c1 3e
       -0.34122276 -0.22948286 -0.7185664 0.37887448
0001d0 0b 1e b9 3e df e1 49 bf 05 73 ef bd 77 82 e6 be
       0.36155733 -0.78860277 -0.1169186 -0.45021412
0001e0 12 9e 3d 40 b8 ad 96 be fb b7 5b be be fe 85 3d
       2.9627728 -0.29429412 -0.21456902 0.06542729
0001f0 08 eb 8b 3e 4b 0d d9 bf 6c 18 5d 3c 14 df a3 be
       0.27327752 -1.6957182 0.013494592 -0.32006133
000200 63 ab 02 bf 74 aa c1 be c4 db 0f bf 71 7e 8c be
       -0.51042765 -0.37825358 -0.5619471 -0.27440217
000210 98 b2 2d 3f f0 f3 b2 be 72 8f ce 3d d3 3f 2c bf
       0.6785064 -0.34951735 0.10085954 -0.6728489
000220 3a 79 89 bf 59 5a 3b bf d1 43 e1 be ae c0 18 bf
       -1.074012 -0.73184735 -0.43997052 -0.59669006
000230 08 bc 3c bf 81 10 03 bf 1b 0f 4e bf 68 5b 21 bc
       -0.7372441 -0.5119706 -0.804918 -0.009848453
000240 a4 56 e6 3e 71 82 5f 3e 72 df 07 bf bd 58 e7 be
       0.44987977 0.21827103 -0.53075325 -0.4518489
000250 ee 06 e3 3e da ea b3 be 36 4b 17 bf 1b 72 54 3e
       0.44341224 -0.35140115 -0.5909914 0.20746653
000260 bc 12 a1 bf 18 5c 61 bf 0d c3 30 bf c9 55 2c bf
       -1.2583842 -0.8803115 -0.69047624 -0.673184
000270 5d 40 05 bf 2c 80 32 bf 19 09 5e bf 68 4c 80 bf
       -0.52051336 -0.69726825 -0.8673263 -1.0023317
000280 30 7d 8a be e3 58 ce bf bd da 88 3e eb 65 1b bf
       -0.27048635 -1.6120876 0.26729384 -0.6070239
000290 62 ac 90 bf bd 6e 5f 3e 29 f0 69 be 43 85 c7 3d
       -1.1302607 0.21819587 -0.2284552 0.097422145
0002a0 94 b4 40 bf 0a 68 ce 3e 7c ea 44 3f 08 d2 93 3d
       -0.7527554 0.4031375 0.76920295 0.07217795
0002b0 60 2f f8 3e c3 a2 23 bf 81 51 1c 3e 12 f6 51 bf
       0.48473644 -0.6392023 0.15265466 -0.820161
0002c0 3b ee bb bd ad 6c 3d bf 34 75 6f be 8c f3 1f 3e
       -0.09176298 -0.7399395 -0.23384553 0.1562025
0002d0 66 6c 26 be 35 d9 a0 be b3 8c 9f be d3 50 2c be
       -0.16252288 -0.31415716 -0.31162032 -0.16827707
0002e0 73 df 81 3e c2 10 5a bf 96 be 35 be 71 8b 51 3c
       0.2536579 -0.8518182 -0.17748484 0.012789593
0002f0 d7 19 b8 3e c2 e0 3c be b7 be 37 bf aa 80 31 bf
       0.35957214 -0.18445113 -0.7177538 -0.6933695
000300 d4 2d 02 be 0d 2d 61 bd d6 a0 c3 be 24 3f dd be
       -0.12712795 -0.054974604 -0.38208646 -0.43212235
000310 55 dc 03 40 a2 56 a6 3e 78 b0 c5 be 0f d0 5d bf
       2.060323 0.3248797 -0.38611197 -0.866456
000320 af b3 89 be 96 05 cc 3f f4 0f d6 be 48 58 0e bf
       -0.268949 1.5939205 -0.41809046 -0.55603456
000330 80 f4 91 bf 5e 2e 9f bd 6f 53 8d bf 4c a8 8c bd
       -1.140274 -0.07772516 -1.1041087 -0.068680376
000340 8d ed d9 bf 53 4e 43 3e 15 cf 45 bf 05 fd 22 bf
       -1.702562 0.19072847 -0.7726911 -0.6366733
000350 e8 9b f1 3e ce c7 fd 3c 6c 47 79 3e ee 1b 3c be
       0.4718926 0.030979063 0.24343652 -0.1837003
000360 49 75 c8 be 03 18 eb be 50 1e b1 3e c0 6d 08 bf
       -0.3915198 -0.45916757 0.3459344 -0.53292465
000370 ac 05 bc be 21 ba b0 3c 47 c3 e3 3c a1 6d 48 3e
       -0.36723077 0.021573128 0.027803076 0.1957307
000380 d0 92 fe be a9 1f 8f bd 2a e2 4d 3e 2d d0 80 3e
       -0.49721384 -0.069884606 0.20105806 0.25158826
000390 2d 0a 9f bf 18 2c 02 bd 4c ac a2 3f b1 54 fc be
       -1.242498 -0.031780332 1.2708831 -0.49283364
0003a0 85 be 2b 3e 78 92 00 3f 52 54 fa be 8e af 43 be
       0.16771896 0.50223494 -0.48892456 -0.19109938
0003b0 7a 5a a2 be 93 10 00 bf 6c c8 29 bf 85 c1 8e 3f
       -0.31709653 -0.5002529 -0.66321445 1.1152807
0003c0 6d e6 21 3f 02 e9 ac 3d f1 1d e5 bd 13 79 18 3d
       0.63242227 0.0844288 -0.111873515 0.03722484
0003d0 c5 62 61 be e3 8e 2d bd 33 b7 1d bf df 2e 74 bf
       -0.22010334 -0.042372596 -0.61607665 -0.9538402
0003e0 3b e3 28 40 e1 ab b1 3c 12 e8 89 be ee d9 2a 3b
       2.638869 0.021688404 -0.26934868 0.0026069838
0003f0 49 6b 10 3f 9c 3c 79 bf 55 58 93 be 06 79 9b be
       0.56413704 -0.9735811 -0.2877833 -0.3036577

fc4.bias f4 [784]
000000 25 38 5a c0 ec 49 41 c0 ac 83 54 c0 93 db 64 c0
       -3.4096768 -3.0201368 -3.3205366 -3.5759017
000010 e6 e4 83 c0 5a a7 64 c0 24 8c 65 c0 85 07 53 c0
       -4.1216917 -3.5727143 -3.5866785 -3.297334
000020 9c bb 3d c0 4f 37 41 c0 e8 e1 47 c0 82 90 7f c0
       -2.9645758 -3.0190008 -3.1231632 -3.993195
000030 2f 4a 5d c0 e0 80 5b c0 5a 93 47 c0 20 80 57 c0
       -3.4576528 -3.429741 -3.1183686 -3.3671951
000040 d0 a6 4d c0 3d e0 2f c0 6f 33 6d c0 f1 41 4c c0
       -3.2133064 -2.7480614 -3.7062643 -3.1915247
000050 a8 1a 52 c0 2f 95 5d c0 71 03 4e c0 dd 51 52 c0
       -3.282877 -3.4622304 -3.21896 -3.2862465
000060 76 b0 54 c0 8a b6 73 c0 7c 93 4b c0 c8 16 5e c0
       -3.3232703 -3.8080163 -3.1808767 -3.4701405
000070 e3 06 63 c0 81 df 6d c0 7e 60 39 c0 b8 85 5b c0
       -3.5472953 -3.7167666 -2.8965144 -3.4300365
000080 32 09 67 c0 d5 81 62 c0 35 70 4b c0 4d 26 76 c0
       -3.6099362 -3.5391743 -3.1787236 -3.8460877
000090 88 49 55 c0 74 b1 63 c0 79 5b 6c c0 89 be 47 c0
       -3.332613 -3.5577059 -3.693083 -3.1210043
0000a0 fb 06 64 c0 c7 6a 5c c0 59 bc 55 c0 a4 2e 2e c0
       -3.562926 -3.4440172 -3.3396208 -2.7215967
0000b0 73 25 60 c0 8d 0a 60 c0 9c 09 63 c0 45 ab 5f c0
       -3.5022857 -3.500644 -3.5474615 -3.4948285
0000c0 65 29 6f c0 01 36 80 c0 a4 aa 63 c0 11 bc 58 c0
       -3.7369015 -4.0065923 -3.55729 -3.3864787
0000d0 e0 84 3e c0 f5 a2 7a c0 c6 c1 73 c0 10 46 3e c0
       -2.97686 -3.916196 -3.808702 -2.9730263
0000e0 27 23 5c c0 9c e7 5a c0 40 64 67 c0 8c 6b 66 c0
       -3.4396455 -3.4203863 -3.6154938 -3.6003141
0000f0 ca 84 53 c0 46 60 60 c0 6e 09 8d c0 82 8e 54 c0
       -3.3049798 -3.505876 -4.407401 -3.321198
000100 cd 8d 5b c0 aa 10 5f c0 64 aa 5a c0 47 ff 4d c0
       -3.4305298 -3.485392 -3.4166498 -3.218706
000110 3e 1f 77 c0 a6 05 62 c0 6e 4b 59 c0 95 a9 53 c0
       -3.8612819 -3.5315948 -3.3952289 -3.3072255
000120 6b 4b 6a c0 84 19 7d c0 62 9f 70 c0 de ba 4f c0
       -3.6608531 -3.9546824 -3.759728 -3.2457805
000130 8f df 69 c0 b9 d1 47 c0 a8 62 68 c0 a7 58 6a c0
       -3.65427 -3.1221755 -3.6310215 -3.661661
000140 85 10 53 c0 f4 59 6e c0 d3 c2 5a c0 99 41 4e c0
       -3.2978833 -3.7242403 -3.4181411 -3.2227538
000150 39 5d 69 c0 f2 c8 48 c0 b9 be 57 c0 8f 6d 77 c0
       -3.6463149 -3.1372647 -3.3710158 -3.866062
000160 f0 d0 73 c0 da 88 68 c0 33 9c 35 c0 3e bb 52 c0
       -3.8096275 -3.6333528 -2.8376586 -3.2926784
000170 62 06 54 c0 36 ae 62 c0 51 19 5e c0 5d a1 58 c0
       -3.3128896 -3.541883 -3.4702952 -3.3848488
000180 44 ce 44 c0 94 ab 5c c0 d0 ea 44 c0 df 64 45 c0
       -3.0750895 -3.4479723 -3.0768318 -3.0842817
000190 f0 38 48 c0 11 fc 58 c0 cd 0a 5d c0 3c f3 3d c0
       -3.1284752 -3.390385 -3.4537842 -2.9679708
0001a0 85 aa 43 c0 82 64 4f c0 cc d6 85 c0 23 d5 75 c0
       -3.0572827 -3.2405095 -4.1824703 -3.8411338
0001b0 72 b6 66 c0 ce d8 60 c0 7e f8 45 c0 e5 b4 7f c0
       -3.6048856 -3.5132327 -3.0932918 -3.995416
0001c0 32 95 63 c0 30 87 5a c0 94 fe 3b c0 cf db 69 c0
       -3.5559812 -3.4145012 -2.9374132 -3.654041
0001d0 80 b6 4f c0 f7 8f 65 c0 0f 67 66 c0 b4 f3 75 c0
       -3.245514 -3.586912 -3.6000402 -3.8429995
0001e0 a2 16 5c c0 76 56 46 c0 54 6b 41 c0 6c 1a 37 c0
       -3.4388814 -3.0990272 -3.0221758 -2.8609877
0001f0 3f 13 07 c0 3f 2b 01 c0 2e 1a 09 c0 b0 e7 ea bf
       -2.1105497 -2.0182645 -2.142223 -1.8351955
000200 c8 5b f8 bf d8 15 f6 bf 56 6f 06 c0 2e 8a 1e c0
       -1.940301 -1.9225416 -2.1005454 -2.4771838
000210 b1 2f 29 c0 a7 42 32 c0 32 f1 3e c0 9e ed 59 c0
       -2.6435359 -2.7853181 -2.9834714 -3.405128
000220 26 40 4d c0 a9 d9 51 c0 2c a7 49 c0 3b 5f 48 c0
       -3.2070403 -3.27891 -3.1508284 -3.1308124
000230 eb 46 6b c0 d2 d2 4f c0 0e fc 5a c0 60 35 53 c0
       -3.6762035 -3.2472425 -3.4216342 -3.3001328
000240 09 20 6d c0 64 a1 1d c0 0f 57 54 c0 26 73 44 c0
       -3.7050803 -2.4629755 -3.3178136 -3.069528
000250 04 87 40 c0 62 17 24 c0 ff d3 08 c0 9c 08 d7 bf
       -3.0082407 -2.5639272 -2.1379392 -1.6799502
000260 90 fd a1 bf 6f dd 8e bf 00 41 5d bf 5a 75 54 bf
       -1.2655506 -1.1161326 -0.8642731 -0.82991564
000270 e3 9f 44 bf 43 c4 61 bf 54 d8 94 bf 1a 9e b0 bf
       -0.7680647 -0.88190097 -1.1628518 -1.3798249
000280 07 43 ed bf c5 51 1a c0 b5 5e 32 c0 6c 03 57 c0
       -1.853608 -2.4112408 -2.7870305 -3.3595839
000290 ca ea 64 c0 d1 c4 4b c0 ce 44 43 c0 44 0d 4b c0
       -3.5768304 -3.1838877 -3.0510745 -3.1726847
0002a0 d0 93 57 c0 80 f4 57 c0 76 52 71 c0 b6 b0 6c c0
       -3.3683968 -3.374298 -3.770658 -3.6982856
0002b0 e3 f4 41 c0 2d 56 49 c0 9c df 42 c0 ae ca 29 c0
       -3.0305717 -3.1458848 -3.044898 -2.6529956
0002c0 5f de 34 c0 ab 80 04 c0 ea a9 a9 bf 96 a7 76 bf
       -2.8260725 -2.0703533 -1.3254979 -0.96349466
0002d0 a8 2a 4f bf 8d 55 f9 be 74 61 5f be f3 fa b3 bd
       -0.80924463 -0.48698083 -0.21814519 -0.08788099
0002e0 5b 61 3d be 2c c3 98 be 16 62 fb be cc 4b 65 bf
       -0.1849417 -0.29836404 -0.4909827 -0.8956878
0002f0 dd 04 a7 bf f0 a4 f7 bf cf 3f 21 c0 7c ac 3a c0
       -1.3048359 -1.934721 -2.5195196 -2.9167776
000300 df 33 58 c0 c3 51 68 c0 62 db 50 c0 7e 16 4f c0
       -3.378166 -3.6299903 -3.26339 -3.2357478
000310 25 5d 58 c0 cf 0f 4c c0 28 9c 4f c0 62 0a 65 c0
       -3.380685 -3.1884649 -3.243906 -3.5787587
000320 64 f9 49 c0 7b 6b 34 c0 7c f2 2c c0 df 3d 0d c0
       -3.1558466 -2.81906 -2.7023 -2.2069013
000330 dc ce 03 c0 d4 09 9a bf a6 6c 49 bf 14 d6 03 bf
       -2.0595007 -1.2034249 -0.7868141 -0.5149853
000340 ca d7 80 be aa 7a 34 bd 18 58 89 3d 7b 03 0b 3e
       -0.25164634 -0.044062294 0.06706256 0.13575546
000350 16 2d 15 3d 75 ec 47 be f9 6c 87 be bb 3f 21 bf
       0.03641995 -0.19523795 -0.26450327 -0.6298787
000360 ab 1b 8e bf 18 d4 c7 bf 84 ee 0d c0 e4 03 1d c0
       -1.1102194 -1.5611601 -2.2176828 -2.4533625
000370 7b 12 54 c0 eb e3 4c c0 2f 03 3f c0 64 52 50 c0
       -3.313628 -3.201411 -2.9845693 -3.2550287
000380 85 04 7e c0 1c 0b 74 c0 20 dd 57 c0 c8 21 6a c0
       -3.9690259 -3.813178 -3.3728714 -3.6583118
000390 69 58 4c c0 82 73 31 c0 45 bc 23 c0 74 88 ec bf
       -3.1928961 -2.772675 -2.558366 -1.8479142
0003a0 a6 1c c5 bf bb f3 a0 bf 25 07 55 bf 21 04 9e be
       -1.5399368 -1.2574381 -0.83214027 -0.30862525
0003b0 e1 d7 b0 be 32 56 3b be 27 90 63 be 28 18 91 be
       -0.34539703 -0.182946 -0.22222959 -0.28338742
0003c0 6d 24 67 be 24 12 74 be 87 e5 b1 be b3 aa 09 bf
       -0.22572489 -0.23835045 -0.34745428 -0.5377609
0003d0 f8 c0 48 bf e0 7d c5 bf 3c 14 0d c0 91 d1 3a c0
       -0.78419447 -1.5429039 -2.20436 -2.919041
0003e0 4c d2 52 c0 01 d0 58 c0 df 3e 4d c0 52 69 56 c0
       -3.2940855 -3.3876956 -3.2069623 -3.3501782
0003f0 c7 b3 69 c0 b1 ad 6f c0 9f 66 68 c0 f6 ff 59 c0
       -3.6515977 -3.7449763 -3.6312635 -3.4062476
