checkpointD.pth (torch_old, 444671 bytes, 7 tensors)

fc1.weight f4 [128, 784]
000000 e4 c8 c3 bd 1a ab 1a 3e 63 00 22 3e fb b6 25 be
       -0.09559801 0.15104333 0.1582046 -0.16183083
000010 e6 a1 2b 3d 4b f4 39 3e 09 61 a9 3c 93 cd fc 3d
       0.041902445 0.18159597 0.020676153 0.12343898
000020 07 d0 54 be fa b9 25 bc 2b 57 3a 3c b9 43 5c 3e
       -0.20782481 -0.010115141 0.0113733215 0.21510209
000030 f5 41 e9 bc f8 1a 1b 3e 2e 0d 53 be 8a 92 ee be
       -0.028473834 0.15147007 -0.20610496 -0.46596175
000040 e9 2e 81 3c 39 0d 66 bd b3 15 1e bd fc b8 e3 3d
       0.015769439 -0.056164954 -0.038594913 0.11119267
000050 22 8f 44 3e a4 90 86 3d 82 86 28 3e 15 9c fe bc
       0.19195226 0.06570557 0.1645756 -0.031080285
000060 9c 83 b0 be 7f a9 c8 be b8 0f 83 be 27 c0 2d be
       -0.3447541 -0.39191815 -0.2559793 -0.16967832
000070 8c ae c6 be 8b a1 e8 be bb 00 2b be 60 b5 1b be
       -0.38805044 -0.45435748 -0.16699497 -0.15205908
000080 72 b3 8d 3d aa c2 10 3e 53 2b 79 3e 7e ea ff bd
       0.06918992 0.14136758 0.24332933 -0.12495898
000090 22 a5 92 be 03 a5 a9 3d 56 58 ed bd 02 d7 1c be
       -0.2864161 0.082834266 -0.11589114 -0.15316394
0000a0 48 43 d0 3d 1c 3f ea 3c 4a 00 90 3e 75 89 05 be
       0.10169083 0.028594546 0.2812522 -0.13040717
0000b0 3c f5 bd bd 68 f6 3f 3e ae 90 5b be c7 cf 85 3d
       -0.0927529 0.1874634 -0.2144191 0.06533771
0000c0 45 81 a8 3d d6 ff b5 3e 1f bb 81 be 3c 26 21 3e
       0.08227781 0.3554675 -0.25338075 0.15737242
0000d0 1b e0 92 3e 92 90 75 3e 4d 7d 82 3e f8 bc 2c bc
       0.28686604 0.2398093 0.25486222 -0.010543101
0000e0 54 47 10 bd b5 92 54 bd 83 de f4 bd 28 75 d3 bd
       -0.035224274 -0.051897723 -0.11956503 -0.1032508
0000f0 be 11 43 be 18 c1 fe 3c 55 87 11 be f2 ae 9e 3e
       -0.19049737 0.031097934 -0.14211781 0.30992848
000100 fd fc fa bc 03 67 a7 be 49 77 9d 3e 3c 4b dc 3e
       -0.030638212 -0.3269578 0.3075507 0.4302615
000110 eb 3f 0e 3c c8 e0 10 3e b3 9b 08 3f cd ed 88 3e
       0.008682231 0.14148247 0.5336258 0.26743928
000120 fb 63 2d 3f 71 16 1b 3f 1c 00 6d 3d f2 d3 34 3f
       0.67730683 0.6058112 0.057861432 0.706359
000130 93 4c 7e 3e ba e8 a4 3e e6 da be 3d 46 fb 95 3d
       0.24833898 0.32208806 0.09319095 0.07323317
000140 36 36 8b 3e 0c 52 2e 3d b9 80 43 3d 46 d4 ba be
       0.27189797 0.042558715 0.04773018 -0.36490077
000150 43 6c cb be 4b a6 e9 bb 66 d2 0f 3d b6 93 c9 bd
       -0.39731035 -0.0071304194 0.03511276 -0.09842627
000160 43 f4 9e bd 9d 38 3e bc f9 02 5f be 8c 67 09 3d
       -0.07761433 -0.011610177 -0.21778478 0.033546016
000170 a6 a3 3a be 60 61 d5 3e 9b 19 11 bf d0 82 89 be
       -0.1822649 0.41675854 -0.56679696 -0.26857615
000180 b3 f8 af be df 7e 3a bf 5f bc 06 bd 40 94 7e be
       -0.3436943 -0.7284984 -0.03289449 -0.2486124
000190 9f ca 3c bf 38 40 ff be 14 1d ac be 84 a5 0e be
       -0.73746675 -0.49853683 -0.33615935 -0.13930327
0001a0 3e ea cb 3e 22 7e a6 be 80 4e a9 bc f3 0a b0 3e
       0.3982715 -0.32518107 -0.020667315 0.34383354
0001b0 12 73 14 3d 42 eb 44 be 0d c4 2b be 47 d4 60 be
       0.036242552 -0.19230369 -0.16774006 -0.21955977
0001c0 fd a4 3e 3e c8 c2 ec 3c 4d c5 ac be 05 83 74 be
       0.18617626 0.028901473 -0.3374428 -0.23878105
0001d0 86 29 c2 bd aa e9 00 3f 12 56 09 be 76 cd 46 3d
       -0.09480576 0.50356543 -0.1341174 0.048535787
0001e0 e5 a9 0b 3f be 33 93 be f9 7c 43 3e 1a 5c 76 3f
       0.54556113 -0.28750414 0.19090642 0.96234286
0001f0 e9 a6 25 3f f2 f7 ed 3e 54 b1 58 be ad e0 a7 3f
       0.6470781 0.4647823 -0.21161395 1.3115441
000200 e8 d4 7a be fc 69 cf 3f b8 49 c2 3e ec c2 ce 3f
       -0.2449528 1.6204219 0.37946868 1.6153235
000210 6e b3 36 bd 2f a6 bf 3d bf 5d 10 3f 8a 55 0f 3f
       -0.04460471 0.09357869 0.56393045 0.559899
000220 e0 87 47 3c 88 b6 8a bd d6 6a 54 3d 37 3b 2a 3d
       0.012178391 -0.06773096 0.0518597 0.041560378
000230 1e e3 02 3d 88 99 0e 3e 3f 1b 5f 3e 07 0d 81 ba
       0.031954877 0.13925755 0.21787737 -0.0009845801
000240 5d 35 50 ba e7 7e b4 3c 8d ce 2d 3e 50 3f 68 3e
       -0.0007942522 0.022033168 0.16973324 0.22680402
000250 26 dc 9a 3f 28 6e 66 3f b2 1f a7 be 28 df 63 be
       1.2098434 0.90011835 -0.3264137 -0.22253096
000260 c6 8e 02 c0 ea 59 0a 40 15 c6 b0 3e 01 1e 92 bf
       -2.0399642 2.161738 0.34526125 -1.1415406
000270 f2 06 05 bf 85 e4 68 3f 40 b6 24 3f 41 27 ac 3e
       -0.5196372 0.90973693 0.6434059 0.33623698
000280 c6 b1 1e be 4c 46 07 40 6d 74 32 3e e7 dd df 3e
       -0.15497503 2.1136656 0.17427225 0.43723986
000290 81 c5 a9 3e 77 64 02 3e c2 2f c5 bd 67 dc 6a bd
       0.33158496 0.12733637 -0.0962825 -0.0573391
0002a0 11 89 60 3e 42 c8 a9 be a3 22 e4 3d f8 1b 0f 3e
       0.21927287 -0.33160597 0.11139419 0.13975513
0002b0 cd a2 8a bd 7c fe 92 bd 30 a4 a5 3e 68 00 6e bf
       -0.06769333 -0.07177445 0.32351828 -0.9296937
0002c0 b0 e3 b4 bf 4b b4 35 3f 50 60 0f bf bf 2c 08 40
       -1.4131985 0.7097823 -0.56006336 2.127731
0002d0 a0 2b 21 3e fe 5f ec be df e6 ad bf 96 7c 28 40
       0.15739298 -0.46166986 -1.3586081 2.6326041
0002e0 6b df 37 be b7 e3 fd 3d 3b fe f7 bf 99 eb 82 3f
       -0.17956321 0.12396949 -1.937446 1.0228149
0002f0 e9 46 a9 bc fd 20 d7 3e eb 17 da bd 31 ad 4d 3f
       -0.020663695 0.42017356 -0.10649093 0.80342394
000300 4e 01 3c 3f f7 f4 96 3e e9 31 f7 3d 37 42 57 3e
       0.7343949 0.29483768 0.120700665 0.21021353
000310 dd 4e 8d 3c 7a a6 b5 be ff 69 78 bd d9 36 8c 3e
       0.017249519 -0.35478574 -0.06064796 0.27385595
000320 ea bd 2f bd 7e f9 8c 3e 8e b7 a7 bf bb 52 35 3f
       -0.042905726 0.27534097 -1.3102891 0.7082936
000330 33 e2 4a 3d 7f 42 00 bf f4 98 f7 3e 20 49 07 c0
       0.049532127 -0.50101465 0.4835888 -2.1138382
000340 83 45 ce 3e 1e da bf 3f 2a 71 5c be fa 67 25 3e
       0.40287408 1.4988439 -0.21527544 0.16152945
000350 fe 6a f2 bf d9 61 e0 3f 9f 40 eb 3f 67 89 a9 be
       -1.8938901 1.7529861 1.8379096 -0.33112642
000360 07 ab 8e bf e1 02 bd 3e b4 77 f5 3d 8f 48 98 3f
       -1.1145943 0.3691626 0.11985722 1.1897143
000370 25 78 be 3e 0f 57 f9 bd 18 73 43 3e db b3 5f 3e
       0.37201038 -0.12174808 0.19086874 0.21845953
000380 a3 5f 80 be f1 44 a7 bc df 77 96 3b 58 94 00 be
       -0.25072965 -0.020418616 0.0045919265 -0.12556589
000390 61 94 36 be bc f7 8a be 0c 54 27 3f 95 65 58 bf
       -0.1783004 -0.2714213 0.6536262 -0.8453
0003a0 e2 9b a7 bd 73 5d d5 3e 50 08 0a bf b5 2f 1e 40
       -0.08184029 0.4167286 -0.53918934 2.4716618
0003b0 63 0b 8c bf da 23 78 bf d2 be e5 3e 1b 65 a5 bf
       -1.0940975 -0.96929705 0.44872147 -1.292148
0003c0 f3 94 56 40 e3 59 d7 be 9d 31 c9 bf eb 5e 40 3f
       3.3528411 -0.42060766 -1.5718266 0.75144833
0003d0 12 86 b2 3f bb 6f 3c bf 97 e2 1e 3f f1 b3 8b be
       1.3947165 -0.7360799 0.620645 -0.27285722
0003e0 66 d6 16 3f 7f a6 2f 3f 8b 9e 98 3e 65 e8 d1 3d
       0.58920896 0.6861343 0.2980846 0.10249404
0003f0 2f 07 99 3d f8 75 70 bd 29 a8 84 be a9 85 1b 3e
       0.07472073 -0.058706254 -0.25909546 0.15187706

fc1.bias f4 [128]
000000 31 a2 96 40 d4 fe 7f 40 0e e1 f9 be 31 99 85 40
       4.7072988 3.9999285 -0.48804516 4.17495
000010 47 1b 2d 40 88 7d 6d 40 08 ab 7f 40 1e 12 6e 40
       2.7047899 3.7107868 3.994814 3.7198558
000020 10 28 5f 40 d3 98 4a c0 fa 99 67 c0 32 5c 81 c0
       3.4868202 -3.1655777 -3.618773 -4.0425043
000030 7d b5 85 40 1c 39 1b c0 45 ba 6b 40 96 e8 2d 40
       4.1784043 -2.4253607 3.683244 2.717321
000040 1e e3 6e 40 49 4c 8a c0 2b c1 83 40 97 e6 42 c0
       3.7326121 -4.321812 4.11733 -3.045324
000050 91 2f 44 40 9f c3 35 c0 98 af 6e c0 6c e0 89 40
       3.0654032 -2.8400648 -3.7294674 4.3086452
000060 70 ce 87 40 35 59 5f c0 c9 ce 8a 40 1b 6b 1d 40
       4.24395 -3.4898198 4.3377423 2.4596622
000070 39 16 85 c0 b3 3d 3a 40 21 84 5d 40 ba b5 82 40
       -4.1589627 2.9100158 3.4611895 4.0846834
000080 ae 7e 83 40 9a a2 78 40 fd ac fe bf ba 7b 33 c0
       4.109214 3.8849244 -1.9896542 -2.8044267
000090 63 85 6f 40 d0 66 73 40 cc fe 0f c0 e0 57 41 40
       3.7425163 3.8031502 -2.2499266 3.0209885
0000a0 88 46 91 40 bf 11 5d 40 89 d4 41 c0 20 b2 8d 40
       4.53986 3.4542081 -3.028597 4.427994
0000b0 3a 72 18 c0 f8 ce 8b 40 77 62 4d c0 10 6d 3e c0
       -2.3819718 4.3690147 -3.2091348 -2.9754066
0000c0 9c 20 5b c0 79 64 94 40 aa cb 6a 40 f7 b0 87 40
       -3.4238653 4.6372647 3.6686807 4.240352
0000d0 20 71 61 40 52 00 7e 40 20 e7 70 40 05 e5 89 40
       3.5225296 3.9687696 3.7641068 4.3092065
0000e0 8c 30 82 40 ed 05 4d c0 45 05 6f 40 81 4f 3b c0
       4.068426 -3.2034867 3.7346966 -2.9267275
0000f0 d2 66 8e 40 5f eb 6a 40 b3 f3 5b c0 ee 74 84 40
       4.4500513 3.670616 -3.4367492 4.1392736
000100 9e 28 22 c0 f8 07 94 40 69 b5 77 40 73 a4 5e 40
       -2.533729 4.6259727 3.8704474 3.4787872
000110 45 2f 54 40 14 10 55 40 3b 46 78 40 6a 28 1a c0
       3.315385 3.3291063 3.8792865 -2.4087167
000120 29 76 71 40 60 e8 48 40 cc 6b 3d 40 20 9b db 3f
       3.772837 3.139183 2.9597044 1.7156715
000130 c5 1f 8d c0 96 35 44 c0 c1 d1 c9 3f 8a d2 7a c0
       -4.410128 -3.0657706 1.5767137 -3.9191003
000140 7e e5 3c 40 c9 b6 64 40 b8 a9 00 bf e5 12 6e c0
       2.951507 3.5736563 -0.5025897 -3.7199032
000150 f9 23 72 40 5b 0d 3b c0 42 5e 6c 40 21 25 6e 40
       3.7834456 -2.9226902 3.693253 3.7210162
000160 63 1b 90 40 53 72 53 c0 69 61 5e 40 9c 62 80 40
       4.503343 -3.3038528 3.4746954 4.0120373
000170 92 11 37 c0 a3 b4 6d 40 3e 2a 47 40 b4 4a 5c 40
       -2.8604474 3.7141502 3.1119533 3.4420595
000180 84 2b 3b c0 5c b0 81 40 df 73 23 c0 74 6f 6c 40
       -2.924531 4.0527782 -2.5539472 3.6943026
000190 3c 41 6c 40 7f 28 8d 40 69 b5 55 40 35 3b 2c 40
       3.6914816 4.4111934 3.3391974 2.6911137
0001a0 6b 2c 81 40 d2 4e 5c 40 d8 c9 8c 40 c1 4c 82 40
       4.036672 3.4423108 4.399639 4.0718694
0001b0 20 0d ea 3f 7a 67 92 40 04 36 2d c0 4b 7b 99 40
       1.8285255 4.5751314 -2.7064219 4.7963004
0001c0 1f a5 6c 40 3f 36 85 40 35 a3 85 40 91 0b 78 40
       3.6975782 4.162872 4.1761727 3.875706
0001d0 29 06 3a 40 f4 b6 63 40 c6 e1 7e 40 fb dd 76 40
       2.906626 3.5580416 3.98253 3.8572986
0001e0 9f 1f 3b c0 41 a2 14 40 21 9e 37 40 64 e2 6e 40
       -2.923805 2.3224032 2.8690264 3.7325678
0001f0 8b c0 4d c0 ee 2e 32 40 52 0e 6a 40 46 34 80 40
       -3.214877 2.7841144 3.657124 4.006381

fc2.weight f4 [64, 128]
000000 b3 ed c8 be 11 37 5f 3f 0b e0 04 3d 09 9d a0 3d
       -0.3924385 0.871934 0.032440227 0.07842452
000010 bf 99 5b 3f 0f bc 42 be 10 df 6f bf 3a 33 a2 be
       0.8578147 -0.19017051 -0.9369974 -0.31679708
000020 73 d1 c8 be 11 a2 47 3d 65 3d f2 bd 3d 03 59 bc
       -0.39222297 0.048738543 -0.11828116 -0.013245401
000030 7e 64 41 3f 34 32 09 3e 1d 1e 1a 3f 5f 3f e9 bd
       0.75543964 0.13398057 0.602022 -0.1138904
000040 bf 70 06 3f 49 01 7a bc 85 c1 57 3d a8 d3 2a 3e
       0.52515787 -0.0152590955 0.05267479 0.16682303
000050 71 1e ad 3f 9d fc 7a 3e eb ba c4 3c 9c 83 5d 3e
       1.3524915 0.24510427 0.02401491 0.21632236
000060 c5 40 ea 3e 21 31 0a bd 3c b1 97 3e 4d f2 0a 3f
       0.4575254 -0.03373826 0.29627407 0.5427597
000070 9b c3 a1 3e 7f 9a d0 3e 29 16 d5 be eb 07 98 3d
       0.31594548 0.4074287 -0.4161847 0.07423385
000080 5d 47 69 bd be d1 19 3f 8c 07 b0 bc 52 de 7c bc
       -0.056952823 0.60085666 -0.021487974 -0.015433865
000090 76 df 72 be f4 53 d4 3d 48 cb 92 bd 9c ef 55 3f
       -0.23718056 0.10367575 -0.07167679 0.8356874
0000a0 80 1b b5 be fa 0c e1 3e 01 10 89 3d fc 08 cc 3d
       -0.35372543 0.43955213 0.06692506 0.09962651
0000b0 81 26 42 be 31 e3 80 bd 6f cd 41 3d 32 2e 2b be
       -0.1896 -0.06293333 0.047315057 -0.16716841
0000c0 6d 10 9f 3d ec 45 b5 bd e6 3c 26 be e6 c8 24 3e
       0.07766805 -0.08851227 -0.16234168 0.16092262
0000d0 4c 00 98 3e a5 f3 2e 3f e0 da b8 3f b8 87 15 3d
       0.29687726 0.6834052 1.4441795 0.036506385
0000e0 94 c5 bb 39 41 1b 79 bd eb c3 43 3f f0 32 42 3e
       0.00035814627 -0.060817007 0.7647082 0.18964744
0000f0 6e 70 21 3e 67 3b a6 3e 1f ed d7 3c 75 3d b6 bd
       0.15765545 0.32467195 0.026358185 -0.08898441
000100 a1 22 42 3e 5f 16 fe bc 10 0b 07 3f 84 87 ae 3d
       0.18958522 -0.031016527 0.52751255 0.08521941
000110 d9 9b ad bd 11 e7 86 be 75 78 23 bc 1b 68 3b 3d
       -0.08476991 -0.26348165 -0.00997745 0.04575358
000120 32 a7 be bd bf 87 e2 3c 23 6b 6d 3f c9 74 da bd
       -0.09309234 0.02765262 0.927416 -0.10666806
000130 a1 c0 da bd a4 6e e8 3d 8f 5a 13 3d 9a 4f b5 bc
       -0.10681272 0.11349228 0.035975035 -0.022132684
000140 7b e4 92 be 3b 9e 8f 3e 96 8e 0f 3f 77 c1 82 3d
       -0.28689942 0.28050408 0.56076944 0.06384557
000150 a2 32 05 bd 57 4b 48 3e 64 06 88 3d 38 93 69 3d
       -0.03251899 0.1955999 0.06641844 0.057025164
000160 dc 89 3b bf 09 55 a1 3d 8a 6c 5f be be 35 a4 bd
       -0.7325723 0.07877547 -0.21818748 -0.08018063
000170 0f 82 ff bd 0e 60 7b 3e 11 8f 30 be b1 7f d2 bd
       -0.124759786 0.2454836 -0.17242076 -0.102782615
000180 b8 d6 df 3c bd 9a e3 be bd fe 34 be e7 11 89 3f
       0.027324066 -0.44453993 -0.176753 1.0708588
000190 71 46 e2 3e f1 85 cc 3e a5 24 8a 3f bd 6e 74 bb
       0.44194368 0.3994594 1.0792433 -0.003729745
0001a0 40 88 27 3e 26 5b 29 bd 06 44 25 3f 87 e3 da 3c
       0.16360569 -0.04134669 0.6455692 0.026719822
0001b0 39 2d c8 3e 90 1a af 3d 81 eb 58 3d 86 2d a5 bd
       0.39097002 0.08549988 0.05295897 -0.080653235
0001c0 91 78 8d 3f 18 16 06 3f 33 f0 43 3d a7 26 2e 3e
       1.1052419 0.5237746 0.047836494 0.17006932
0001d0 87 f1 2a be 3f 12 d7 3d 57 e2 51 3c e0 81 5f 3f
       -0.16693698 0.10501527 0.012810311 0.8730755
0001e0 66 25 a7 3c 4a b5 1d 3e ca 14 05 3f fb 7a 4d 3f
       0.020403575 0.15401188 0.51984847 0.8026578
0001f0 cc fb 93 3d ac d8 01 3f 88 ae d9 3e 41 8f 4e 3f
       0.07225761 0.5072124 0.4251597 0.8068734
000200 ba 39 e2 bd e6 20 f7 bd a5 84 ee 3d 54 67 2e 3f
       -0.11046167 -0.12066822 0.11646394 0.68126416
000210 87 b3 c8 3e a7 98 50 3e 5a e9 61 3f 9f a8 d0 3c
       0.39199468 0.20370732 0.8824669 0.02547103
000220 b5 54 c6 3c 21 e8 ad 3d 15 63 f0 bd c2 e3 9d 3d
       0.024210313 0.08491541 -0.117376484 0.07709457
000230 08 ba 76 be c8 a6 53 3e 1e 9d 33 3f a5 3b 68 3d
       -0.24094403 0.20669091 0.70161617 0.056697506
000240 d0 ee 06 3e bf 0b 51 bd ee 78 83 3d ce 77 46 3e
       0.13177037 -0.051036593 0.0641955 0.1938164
000250 1b bc 0a 3e 2a 4e 3d 3e 0b 34 35 3e ac 0a bc 3d
       0.13548319 0.18486848 0.17695634 0.09181723
000260 ca 13 80 3e 38 10 98 bc c1 bb 46 be c4 a9 d7 3d
       0.25015098 -0.018562421 -0.1940756 0.10530427
000270 3f 08 30 bd 2f bc 92 3e e6 85 8b 3f 70 7b 63 3e
       -0.042976614 0.28659198 1.0900238 0.22215056
000280 7f b6 ce bd a3 ea 61 be 4b 32 f1 3d 2e d8 03 be
       -0.10093402 -0.22062163 0.11777171 -0.12875435
000290 eb 49 11 3f d0 6e 60 be 43 c3 5f 3d 69 7a 83 3c
       0.56753415 -0.21917272 0.054629575 0.01604958
0002a0 4e a0 31 3e dd 22 9e 3e 30 9a 5e bd 51 78 1f be
       0.17346308 0.30885974 -0.054346263 -0.15573241
0002b0 25 01 72 bc 2d e0 f2 3d ef f2 01 3c 8d 19 ba 3d
       -0.014770781 0.118591644 0.007931455 0.09086905
0002c0 69 a7 1b 3d d6 5b 97 3e b4 6e 08 3e 13 1b 19 be
       0.03800145 0.29562253 0.1332348 -0.14951734
0002d0 94 da a5 bd 52 3e 28 bc 38 c1 3a 3f 2a 48 c8 3d
       -0.08098331 -0.010268765 0.7295108 0.09779389
0002e0 6f 41 dd bc 79 8b c1 3d 9c 95 4a bd 4a 75 bd 3d
       -0.02700874 0.094504304 -0.049459085 0.09250887
0002f0 30 93 a8 3e 4b 7b d7 3d be d7 c7 3d 96 63 93 3e
       0.32924795 0.10521563 0.097579464 0.28786916
000300 71 51 8f 3d 32 56 f8 be 29 9a 19 3f d6 98 6d 3e
       0.069979556 -0.48503262 0.60000855 0.23202834
000310 c7 71 fa bd 82 41 f2 bd 75 7b 66 3d 6b 51 40 3d
       -0.122287326 -0.11828901 0.05627008 0.046952646
000320 4b 9e 07 be ac 89 3c 40 5b a7 e8 3e c9 70 49 3d
       -0.13243978 2.9459028 0.45440182 0.049179826
000330 e4 ef d2 3d 25 ad b1 3b ba de 33 3e 67 00 a5 bd
       0.10299662 0.0054222518 0.17565432 -0.08056717
000340 cd fb ce bc a2 b9 0c 3b 10 31 8b 3e 32 00 c1 bd
       -0.025266552 0.002147295 0.2718587 -0.094238654
000350 7a b5 28 be ae d9 17 3e fa 50 a9 bd 72 b7 d3 3f
       -0.16475478 0.14829132 -0.08267398 1.6540358
000360 3c cd 01 3e 4f 4e e3 3c 26 82 b7 bc 00 f7 85 3d
       0.12675947 0.027747301 -0.022400927 0.06541252
000370 a1 aa 8a be 15 56 12 3e 22 f9 93 bd 37 59 83 bc
       -0.27083305 0.1429065 -0.07225253 -0.016033752
000380 0c 3d 5a 3d 55 7f a2 be cc 2c 0c bb ec 6f 45 3e
       0.053280875 -0.31737772 -0.0021389006 0.19280976
000390 ed 8c 0e 3f bb 53 a8 3c d1 8f 08 3e 46 a8 d5 bd
       0.55683786 0.020547738 0.13336112 -0.10432486
0003a0 8b af 86 be e9 6b 53 bc 64 e5 97 3d 38 35 84 3f
       -0.26305804 -0.012904146 0.074168 1.0328741
0003b0 94 83 03 bc 58 88 f0 be 14 7f 0d be 06 b7 fd 3e
       -0.008026976 -0.46979022 -0.13818008 0.49553698
0003c0 8d 10 41 3e 2d 93 ab 3e 23 e6 ba 3d ad 15 44 3e
       0.1885397 0.33510724 0.09125926 0.19148894
0003d0 8a 7b 24 be 80 97 da bd f7 6a b3 be 0f 60 08 3f
       -0.16062751 -0.106734276 -0.35042545 0.53271574
0003e0 4a 2f d2 bd d8 e6 31 be d2 0d 91 3e 23 79 c6 ba
       -0.10262926 -0.17373216 0.28330857 -0.0015142303
0003f0 92 c8 bd bc e4 d8 9d 3d 6a 03 77 3f ca b9 6b 3d
       -0.023166928 0.07707384 0.96489584 0.05755023

fc2.bias f4 [64]
000000 da 89 6d 3f 8d 2a 2e 40 86 ad f3 c0 9b 35 0f 40
       0.9278847 2.721347 -7.614932 2.2376468
000010 68 49 38 bf 6c 06 04 40 6c 87 0e 40 ab 30 96 c0
       -0.7198701 2.062892 2.2270155 -4.693441
000020 1e 4c c3 c0 fd 29 d6 3f fd 84 14 40 37 a7 0e 40
       -6.1030416 1.6731564 2.320617 2.228956
000030 76 e8 ba 3f 28 08 78 3f 3b 46 cb 3f 9b 21 73 3f
       1.4602191 0.96887445 1.5880808 0.9497315
000040 c4 ce a2 be 53 e0 e0 3f 71 c3 bf 3f 8d 6a 61 c0
       -0.31798375 1.7568458 1.4981519 -3.5221283
000050 82 09 6c 3f ac 72 ed 3e 21 37 a8 c0 ac 84 8e c0
       0.9220201 0.4637655 -5.2567296 -4.4536953
000060 f3 e5 2b bf 57 b8 26 40 1c 52 a8 c0 55 58 9d c0
       -0.6714775 2.6050012 -5.260023 -4.9170327
000070 60 5f d2 3f 9d f2 08 40 1e 24 c8 c0 d9 2e eb 3f
       1.6435356 2.139808 -6.254409 1.8373672
000080 7a 65 c2 3f fe 67 bc 3f 36 a8 cb 3f 84 a2 f3 3f
       1.5187218 1.4719236 1.5910709 1.9033971
000090 6e ea 16 40 d9 1c 15 40 b8 c8 23 40 c3 33 cd c0
       2.3580585 2.3298857 2.559126 -6.4125686
0000a0 fb d0 cc 3f b2 b9 10 40 52 c9 88 3f ed 30 3a c0
       1.6001276 2.261334 1.0686438 -2.9092362
0000b0 06 37 04 40 0d f8 f9 3e a4 76 22 c0 b9 b9 ea 3f
       2.0658584 0.4882206 -2.5384912 1.8337928
0000c0 cc f0 f5 3f 6e f1 bb c0 8d 7c 90 3f 37 05 be c0
       1.921411 -5.8732214 1.128801 -5.9381366
0000d0 2f f2 c2 c0 96 0d 19 40 88 9e b2 c0 09 41 d0 c0
       -6.0920634 2.3914542 -5.581852 -6.507939
0000e0 93 c0 c6 3f 42 19 5f 3f c5 ce 9c 3f ad 6a ea 3f
       1.5527519 0.87147915 1.2250601 1.8313805
0000f0 7e 3a ee 3f e4 49 ad c0 32 32 00 40 33 fa ce 3f
       1.86116 -5.41527 2.0030637 1.6170105

fc3.weight f4 [32, 64]
000000 0a da 17 3d 6c 9c 20 3d 74 07 e0 3b 35 53 83 bb
       0.037073173 0.039211676 0.006836826 -0.004007722
000010 21 ca 93 bc dd c0 0d 3e b1 e2 38 3d 99 5e 8a bd
       -0.018040719 0.13843103 0.045138065 -0.06756324
000020 c5 8a 84 bc d4 9e f4 3c cb 77 8e bd 08 f7 f3 3d
       -0.016179452 0.029860891 -0.069564424 0.11912352
000030 b2 b9 33 3d 57 68 cf 3d 06 a3 57 3d 34 f6 8c bb
       0.043878265 0.10127323 0.052645706 -0.0043018106
000040 79 28 82 bc 91 7f c5 bd 5a 6f 5a 3d 20 61 ed bd
       -0.01588844 -0.09643472 0.05332885 -0.11590791
000050 31 03 28 3e b6 4f a7 3d f1 eb bd bc 7e e6 86 bd
       0.16407467 0.081695005 -0.023183795 -0.06586932
000060 a2 79 b9 bd db 66 ec 3d 49 38 25 bd 75 91 a2 bc
       -0.09056403 0.115430556 -0.04033688 -0.01984475
000070 ca c7 82 3d e9 0f ab 3b 32 79 21 bd d5 5f c7 3d
       0.06385763 0.0052204025 -0.03942222 0.097350754
000080 f5 f2 6b 3d 23 5b 1d 3e de de cd 3d 4b e6 90 3d
       0.05760475 0.15366797 0.10052274 0.07075175
000090 fb 2c 8e 3d 93 d3 93 bd 98 42 84 bd 0e ca e8 3b
       0.06942173 -0.07218089 -0.06458014 0.007104165
0000a0 67 52 b0 bd 45 ad 36 3d ab 38 ee ba 55 48 cd 3b
       -0.08609467 0.044598836 -0.0018174847 0.006264726
0000b0 26 b9 98 bd 2a 19 ac 3d 31 6d 86 bd cb f2 0e 3e
       -0.07457189 0.08403237 -0.06563795 0.13959806
0000c0 39 d4 bc 3c bb fa 7d bc 8a 5e 56 3d e3 02 97 bc
       0.023050414 -0.015501673 0.052336253 -0.018433994
0000d0 7e 2b 18 bd 53 88 0b bd 99 0b 60 bd 90 02 2e bd
       -0.037150852 -0.034065556 -0.05469856 -0.042482913
0000e0 08 22 0d be 9f c4 0e 3e 54 0a db 3c 03 bb 57 3d
       -0.13782513 0.13942192 0.026738323 0.052668583
0000f0 b6 7f 0b 3e 94 7b c4 bd 2e 0f e3 3d 9e 42 0d 3d
       0.13622937 -0.09593883 0.1108688 0.03448736
000100 36 df ec 3d 5b 30 36 3e 5f 52 8a bd a0 b2 94 3d
       0.115660116 0.17791884 -0.06753992 0.072606325
000110 73 fd 26 bd 73 70 b5 3d 51 5f a0 bc 69 f8 a3 bc
       -0.04076905 0.088593386 -0.0195767 -0.020015912
000120 33 7e ba bc 5e b3 a6 bd a2 37 1e 3d 2c 30 94 3b
       -0.022765255 -0.0813968 0.038627274 0.004522344
000130 63 48 2e 3e 0b ce 03 3d ae 30 44 3e ea 4f 1c be
       0.17019801 0.03217892 0.19159195 -0.1526486
000140 ac 76 00 bd e5 0e 9c 3d d6 c8 87 bd 7e 9c b0 bd
       -0.031363174 0.076200284 -0.06630103 -0.086235985
000150 9e e9 f2 3c 5a e4 d4 3d ce da 1c bd fb 0c e0 bd
       0.029652413 0.10395117 -0.038294606 -0.10939976
000160 2b 23 b2 bc b6 d8 54 bc 47 cf c3 bc f0 06 b0 bb
       -0.021745285 -0.012991121 -0.023902548 -0.0053719208
000170 f5 7c f4 3c 3f 47 1b 3b 6b b4 0a be 81 a7 69 3d
       0.02984474 0.002369359 -0.13545386 0.05704451
000180 04 24 14 bd 39 91 90 3d ba df 1c bd 83 32 99 3c
       -0.03616716 0.07058949 -0.0382993 0.018700844
000190 e5 90 6b 3d 97 01 84 3d 49 04 01 3e 35 6d 28 bd
       0.05751123 0.06445616 0.12599291 -0.041119773
0001a0 90 7f d5 3d de 4f 99 3d 0d a8 bf 3d 18 a6 a2 bd
       0.10424721 0.074859366 0.09358225 -0.07941836
0001b0 fb 06 c5 3d bf 5d 97 bd 9c e8 00 be 05 f5 86 3c
       0.09620472 -0.073909275 -0.12588733 0.016474256
0001c0 34 a3 0f 3c 9d 1a a8 bd 47 fb 39 3d 8e df 0a bd
       0.008766938 -0.08208201 0.045405652 -0.033904605
0001d0 42 e0 fa 3c 96 32 b0 3c f0 04 e0 bc d7 e9 06 be
       0.030624513 0.021508496 -0.027346104 -0.1317514
0001e0 1c ff a8 3d 89 bf 9a bd 93 70 79 bc 30 cf b3 3b
       0.08251783 -0.07556064 -0.015224594 0.005487345
0001f0 b7 d3 d3 bd b9 8f 46 3d c7 b7 93 3d 20 3f be 3c
       -0.10343116 0.04847691 0.07212787 0.02322346
000200 29 3f cb 3d 38 d7 2e bd 73 b3 41 bd 1a 23 02 3e
       0.09924156 -0.042685717 -0.047290277 0.12708703
000210 e6 f7 ef bb c6 9a 6d bd 91 bb d1 3d 2f a4 65 bd
       -0.007323253 -0.05800893 0.102408536 -0.05606478
000220 af e3 a2 bd d4 d5 a1 3d e1 bb 0c 3d 8d dc 0a 3d
       -0.079535834 0.079021126 0.034358863 0.03390174
000230 5c b6 14 3e 71 60 aa 3d d1 e3 98 bd 25 1d b4 bb
       0.1452269 0.08319176 -0.074653275 -0.0054966384
000240 1e 94 2f bd 64 33 03 3e 5a 1c fc bc 9f 5c e1 bd
       -0.042865865 0.12812573 -0.030775238 -0.11003994
000250 c7 dc d6 3b ad 01 4b 3d bd db b4 bd 85 8a 51 bd
       0.0065570804 0.049562145 -0.08830974 -0.051157493
000260 b7 fb 94 bd 60 7b c9 3d ca 2c 84 bd 91 59 7a bd
       -0.07274573 0.09837985 -0.06453855 -0.061120573
000270 ff c8 67 bb 4a c3 d2 3c bc df 9e bd 57 86 8d bd
       -0.0035367606 0.025727887 -0.07757518 -0.06910389
000280 55 63 25 3e 02 f0 86 3d 5f 2e c3 3c 5f 72 d9 bb
       0.16151173 0.065887466 0.023825822 -0.0066359485
000290 fa 41 75 3e bb d4 59 3d 5c 76 07 3d e4 8d ab bd
       0.2395095 0.05318139 0.03307186 -0.08376673
0002a0 bc c2 03 3e e5 b4 04 bd 9c 2c 9d 3d e1 53 72 bd
       0.12867254 -0.032399077 0.07674524 -0.059162024
0002b0 ae 1f a8 3d d9 ae c4 bd 24 95 ec bc 3e b3 f1 3c
       0.082091674 -0.09603662 -0.02887971 0.029504415
0002c0 7f f5 79 bc 79 48 42 bd 09 63 f8 bd 96 b1 9f bd
       -0.015256285 -0.047432397 -0.121282645 -0.07797544
0002d0 7b a5 b6 3c a6 62 36 bd 73 68 5a bd 96 1c a9 bd
       0.022295704 -0.044527672 -0.053322267 -0.082574055
0002e0 ca 15 0e 3e 3a 88 87 3d fb 86 ad 3c 3d aa 06 3d
       0.138755 0.0661778 0.021182528 0.032877196
0002f0 28 02 b2 bc 4a 27 b5 bd 31 b4 f1 3c ac 27 3d bc
       -0.021729544 -0.088453844 0.029504867 -0.011545103
000300 35 83 a5 bd 56 3c a5 3d 2b 5e 28 bd 73 94 8b 3e
       -0.080816664 0.08068149 -0.04110543 0.27261695
000310 95 f1 62 bd b5 7d cb bc c8 2f 3c 3d e2 95 8b bd
       -0.05540617 -0.024840215 0.045944005 -0.06815697
000320 c4 41 5e bd b8 76 8d 3c bc 02 21 3e cf 7b 82 3c
       -0.054261938 0.017268524 0.157237 0.015928177
000330 ff 81 1e 3d f7 e8 18 3d 1c 09 15 bb 25 f6 6e 3d
       0.038698193 0.037331548 -0.0022741025 0.05834021
000340 1b c9 05 be f6 25 3b 3d 25 ed 9c 3c b8 38 74 bb
       -0.13064997 0.0456905 0.019156048 -0.0037265252
000350 22 6b f7 3c fe a4 84 bc 0e 67 fa bc 9b 23 26 bd
       0.030202452 -0.016191956 -0.030566718 -0.0405613
000360 7d 2f 2e be bf 36 5a bd 26 c4 84 bd 6d d3 41 bd
       -0.17010303 -0.053274866 -0.06482725 -0.047320772
000370 e6 47 04 3e f4 22 69 3d c8 d7 8b bd 08 f2 91 3d
       0.12918052 0.0569181 -0.068282664 0.07126242
000380 2d 98 66 3d e8 ff 9b 3d 6e 0f 61 3d d8 02 6b bd
       0.05629747 0.076171696 0.054946356 -0.05737576
000390 a1 f3 75 3d eb 99 3b 3d 18 0d 0e 3e d8 9d 62 bd
       0.060046796 0.045801084 0.13872182 -0.055326313
0003a0 20 74 33 be 61 32 c8 bc fd b2 bf 3c 47 0e 56 bd
       -0.17524767 -0.024438085 0.023400778 -0.05225971
0003b0 3a c2 ab 3c d2 04 52 bd 1b f4 d3 bd c0 65 27 3e
       0.020966638 -0.05127413 -0.10349294 0.16347408
0003c0 55 38 65 3e dc 81 ab bc d4 35 41 bc ec 1b 8b bd
       0.2238477 -0.020935945 -0.011792619 -0.06792435
0003d0 77 26 82 bd e0 12 71 3d d7 69 6e bc a9 7a df bd
       -0.06354993 0.05885589 -0.014551601 -0.109120674
0003e0 4a ab bb 3d 7e 02 a5 3d 9c 9c 4b 3d 33 45 94 bc
       0.0916353 0.08057116 0.0497099 -0.018099403
0003f0 e9 bf 98 3d 30 6e f8 bb 65 30 ff 39 94 01 38 bd
       0.07458479 -0.0075814947 0.00048673447 -0.04492338

fc3.bias f4 [32]
000000 28 23 02 c0 33 08 5b 3e 9b 9d 5f be 72 9b e7 be
       -2.0333958 0.21389847 -0.21837465 -0.45235783
000010 7a 04 45 3f 0e 84 c1 3e 30 c7 ea bd 37 24 fb 3e
       0.76959956 0.37796062 -0.11463773 0.49051067
000020 7d 9a 39 3f 91 5a c1 3f 66 80 bd 3e 95 75 de 3e
       0.72501355 1.5105764 0.37012023 0.43449083
000030 8e 81 30 3f 5e 09 48 3d 73 f3 81 c0 86 d7 30 bf
       0.68947685 0.04883706 -4.060968 -0.6907886
000040 a8 80 19 3f 24 14 6e c0 d8 96 0b 3f c4 07 37 bf
       0.5996194 -3.7199793 0.54527044 -0.71496224
000050 39 bd 22 3d fd 9a 1a 3f 18 fd a7 3e c8 11 e2 be
       0.039731238 0.60392743 0.32810283 -0.4415419
000060 aa fb 63 3f 54 e7 cc be ee 16 0a 3f 7f 3c eb be
       0.89055884 -0.4002024 0.5394124 -0.45944592
000070 68 ff 44 3f a5 68 58 3e bd 08 2a bd 78 55 33 3e
       0.7695222 0.21133669 -0.04151224 0.17513072

fc4.weight f4 [1, 32]
000000 96 68 ba 3b 00 a4 69 bc 1e 0a 69 bb 8f 34 a7 bb
       0.005688737 -0.014260292 -0.0035559009 -0.005102701
000010 54 97 1c bc 68 a5 1b bc 8f 58 b5 bb a4 75 20 bb
       -0.009557564 -0.009499885 -0.0055342386 -0.0024484182
000020 88 3a 36 bb 82 ce cf bb cc 8f 88 bb af 08 2c bc
       -0.0027805883 -0.0063417563 -0.0041675325 -0.010500117
000030 2f 5d 08 bc 51 30 d1 bb 3c 32 08 bc 90 28 a4 bc
       -0.008322998 -0.0063839336 -0.008312758 -0.020038873
000040 c6 22 2a bc f7 ed f9 39 f8 9d 8a bc 20 e9 40 bb
       -0.010384267 0.0004767028 -0.016921028 -0.0029435828
000050 49 2c 1a bc e2 86 79 bc fb de b9 3c 5f d7 d6 bb
       -0.0094099725 -0.0152299125 0.022689333 -0.006556436
000060 09 27 b2 bb c6 33 a8 bc f4 63 80 bb e1 73 0d bc
       -0.0054367823 -0.0205325 -0.0039181653 -0.008633585
000070 51 a1 8e bb 89 42 4c 3a 9c d9 26 3c 16 3a 6f bc
       -0.0043527265 0.0007791897 0.010183718 -0.014601251
